experiments/checkpoint.pt (torch, 256499 bytes, 26 tensors)

feature_extractor_part1.0.weight f4 [20, 3, 5, 5]
00000000: d132 743d ae42 50bd 7a62 b6bc e57d 5e3d
00000010: 5462 debd fb13 8e3d 9593 c1bc c420 713d
00000020: 3983 843c dca4 65bc 88b1 033d 6cc4 be3b
00000030: eb40 2d3d 32ce 37bd d7e6 07bc ab4b 28bc
00000040: bf1b 8a3c d326 b2b9 08f9 ce3d 2ab1 133d
00000050: 45a4 2fbd c895 8ebd e09b 9dbc c389 4bbd
00000060: b210 17bd 61e3 b53b 9216 8d3d 9c99 803d
00000070: cb5f e7bd 5357 923d ca77 043d 2b84 e03d
00000080: 7c40 9c3d caa6 d7bd 1d1a e1bd 72e0 63bd
00000090: 89da cf3d 92de 9cbc fd13 4a3d 2b4c 5cbd
000000a0: fc06 e83d 9513 48bd 575c b13d 103a a43a
000000b0: c2af 79bd d5d1 723d f287 7bbd 7c91 0a3d
000000c0: aa20 09bd 7c98 51bc 0e1b e3bd 8102 61bd
000000d0: 1592 803d 6df1 e4bc 49cc eb3d 9ed0 bd3d
000000e0: 9519 adbb 3b98 9dbd d942 903d 094a 133d
000000f0: f49c 98bd 63dc 993d e8d2 8f3d 1bfd d13d
00000100: 274f 84bd abb3 9abc 69a7 0abb 8025 8b3c
00000110: 8039 b3bd 1e8f a7bd 4ee4 803d 6fdc dcbc
00000120: 4a7f 673d 4a6f db3b 5ac9 1b3d 6dc6 cf3c
00000130: e2c7 2b3d 7e5b 6a3d e4fb dabd d21e 6e3d
00000140: 1c54 a6bd e481 b2bd c368 e53b 3928 a1bc
00000150: 9ae3 8a3d 53f6 88bd 4044 d2bd 490c ac3d
00000160: 137e 8cbc 8ae0 843d 5efc 173d 446c b1bd
00000170: 7c89 bd3c cf83 e23c 788d 9ebd 32b2 60bd
00000180: 72ea 203d 19aa a83c 839c 49bd 99a1 0fbd
00000190: 998f d83d ba8f afbc af4d 853d 1efe 4c3d
000001a0: 9ec3 98bd 6c1d c9bd d2e2 e23d 7c63 c53b
000001b0: ae2c a23d 9e3e c43c ff3f 183d c0a0 b03d
000001c0: 512e e03d 75fd 9cbd 97a1 6a3c 5a7b b03d
000001d0: 9920 ab3d b7b6 923d 2d57 abbd c584 aabd
000001e0: 154a 8fbd dc90 6b3c e87a eb3d 8e92 95bd
000001f0: 479c 7b3d fcf2 82bd e471 debd b03d c9bc
00000200: 6549 883d f093 db3d 14ea 92bd 34f4 cc3c
00000210: 9603 cc3d c0ba 9c3d c364 933d 7e0e a83d
00000220: 0f8d 953d 9b28 f43c 4ebe a1bd 1fb3 c6bd
00000230: b3c1 58bd ffe7 5cbc a40d 91bd 71bf 2c3d
00000240: f7fc 113d 70ae d6bc 1677 353d 5687 183d
00000250: 8632 903d a00c 9f3d 7cd7 20bd 8aa9 e63d
00000260: 91df 5dbc a3e9 87bb 0491 dfbd 2875 98bd
00000270: 7b88 8abd a722 4bbd ccbb a73d 9f51 1bbd
00000280: c7d6 b0bd 755a 353d fc94 163d 94be 983d
00000290: a48d 75bd aae2 cc3c bf84 2cbd 14c8 d5bc
000002a0: c7d3 bcbd 6f56 58bd 30da 10bd 6422 4a3d
000002b0: 8c44 ac3c a1e1 e83c 22cc eb3d b621 e63d
000002c0: e8fb a03d e4e1 683b d1d2 a3bd 6e98 b83d
000002d0: a3c7 edbc 2837 1bbc 1afc cbbd 90da bbbc
000002e0: fac4 98bd d93a d93d 00b7 ccbd e095 b8bd
000002f0: aac6 84bb 9c22 80bd 574e 293d 7350 36bd
00000300: 0ea2 5ebd 60c3 d13b 27e7 aa3d fc3b a6bd
00000310: e82a 5e3d c1d8 973d eb11 e73d cfd2 a5bd
00000320: a8c8 e33c de3b afbd b081 c93d 4931 38bd
00000330: ab19 8e3d ccd7 593b 6c3e 16bc b2f8 7ebb
00000340: 1b36 9f3c 3833 5e3d 0853 973c c4b5 0f3d
00000350: 2826 d5bd 2fdc ab3d acc7 cd3d bc70 c33d
00000360: f8aa ae3d 93f0 aabd fe01 30bd 1f27 d03d
00000370: 971d b4bd f07d d63d d71a babd c9bd a6bd
00000380: 33d1 663d f5a6 a9bd 45a0 d7bc 2853 ac3d
00000390: 109b bb3d e9f2 df3d a4d9 bebc 4985 b7bd
000003a0: ec22 e93d d353 c8bc 91fe 41bd 78b1 e73c
000003b0: be16 a5bd a5b9 9b3d 2081 943d d257 bbbd
000003c0: cafc c1bd 398d 23bc 3839 473d b00e 52bb
000003d0: 033e 6fbd 5f7a 343b f803 debd 7fdf a6bd
000003e0: 7d28 9dbd 4d07 c33d e74c d03d 0e64 20bd
000003f0: b6c8 ad3b 6177 533d 27d6 643c c659 6dbd
0.059618775 -0.05084484 -0.022263754 0.05431928 -0.10858598 0.06937405 -0.023629943 0.05886914
0.016175853 -0.014016356 0.03215173 0.005821755 0.04229824 -0.044874378 -0.008294783 -0.010271947
0.016858933 -0.00033979732 0.10106093 0.03605763 -0.04288127 -0.06962162 -0.019239366 -0.049691927
-0.036881156 0.0055507873 0.068890706 0.06279299 -0.11297568 0.07145562 0.032340802 0.10962709
0.07629487 -0.10529859 -0.10991309 -0.05563397 0.10149104 -0.019149099 0.04933547 -0.053783577
0.11329457 -0.0488468 0.086601906 0.0012529511 -0.06095863 0.059282143 -0.061408944 0.03383015
-0.033478417 -0.012792703 -0.11089145 -0.05493403 0.06277863 -0.027947152 0.11513574 0.09268306
-0.0052825906 -0.07695051 0.07044 0.035959277 -0.074518114 0.075127386 0.07022649 0.10253354
-0.064604096 -0.0188845 -0.0021156913 0.016985655 -0.08751202 -0.08181594 0.06293546 -0.02696058
0.056517877 0.0066966163 0.03803382 0.025363171 0.04193867 0.05721616 -0.106925756 0.05813486
-0.08121511 -0.08716181 0.007001014 -0.0196725 0.06781693 -0.066876076 -0.10266924 0.08400781
-0.01714996 0.0648814 0.03710591 -0.08663228 0.023136847 0.027650742 -0.07741827 -0.05485744
0.039286084 0.020588921 -0.049221527 -0.03506622 0.10574264 -0.021430839 0.065089576 0.050047033
-0.07459186 -0.09820065 0.11078419 0.0060238224 0.07918678 0.02395564 0.037170406 0.08624411
0.10946334 -0.076655306 0.014320753 0.086172774 0.08355827 0.07163756 -0.08366237 -0.08326105
-0.06996552 0.014377799 0.11498052 -0.07303344 0.061428335 -0.06394002 -0.10861567 -0.024565548
0.06654624 0.10721576 -0.07173553 0.025018789 0.099616215 0.07652807 0.07196953 0.08205889
0.073022954 0.029804518 -0.07897626 -0.097021334 -0.0529191 -0.013483047 -0.0708268 0.04217476
0.035641637 -0.026206225 0.044303022 0.03723844 0.070408866 0.0776608 -0.039268002 0.11262806
-0.013542072 -0.0041477247 -0.109163314 -0.07444221 -0.06764313 -0.049593594 0.08190116 -0.037919637
-0.086347155 0.04427572 0.036763176 0.07458225 -0.059949532 0.025010426 -0.042118784 -0.026096381
-0.09220081 -0.052816804 -0.03536433 0.049349204 0.02102878 0.0284279 0.115135446 0.112368986
0.07860547 0.0035535032 -0.079991944 0.09013449 -0.029025858 -0.0094735995 -0.09960194 -0.022931367
-0.07459445 0.106069274 -0.09995842 -0.090129614 -0.004052003 -0.06256601 0.041334476 -0.044510316
-0.054353766 0.0064014643 0.0834487 -0.0811691 0.054240137 0.074143894 0.112827145 -0.08096849
0.027805641 -0.08556341 0.09839189 -0.044968877 0.069384895 0.0033240197 -0.009170156 -0.0038905558
0.01943498 0.054248065 0.01847221 0.035085455 -0.10407668 0.08391606 0.1004785 0.09542987
0.085287035 -0.08346667 -0.04297065 0.10163712 -0.08794706 0.104732394 -0.090871505 -0.081416674
0.05635185 -0.08283798 -0.02632154 0.08414298 0.09160435 0.10935003 -0.023297139 -0.08960969
0.11383614 -0.024454033 -0.047361914 0.028282866 -0.08060978 0.07603768 0.07251191 -0.0914761
-0.09472044 -0.009982401 0.048638552 -0.0032052211 -0.05840875 0.002753876 -0.10840601 -0.08148097
-0.07673738 0.09522877 0.10170918 -0.03915792 0.0053034676 0.05162752 0.0139670735 -0.057946943

feature_extractor_part1.0.bias f4 [20]
00000000: 90c0 1dbd 470f 3ebd 1b39 cfbc 9d4a aebd
00000010: a9c3 d93b d425 96bb bdf7 f7bc c5fe cc3d
00000020: ad79 9e3d 093a 053d 2bcc 2ebd c035 733c
00000030: 526a a2bd b315 a53d b22c dd3d d931 8ebc
00000040: 95a8 b63d 709b dd3d 13be e6bb 68b8 2fbd
-0.03851372 -0.04640129 -0.025295785 -0.08510325 0.006645639 -0.004582146 -0.030269498 0.10009531
0.077380516 0.03252605 -0.04267518 0.014844358 -0.07930435 0.080607794 0.107995406 -0.017357754
0.08918873 0.10820663 -0.0070417016 -0.042900473

feature_extractor_part1.3.weight f4 [50, 20, 5, 5]
00000000: 04e5 0c3b 8992 ee3b e007 2abd 776b 3fbb
00000010: 3994 85bc 1286 f33c 76ef b6ba bc0b f03c
00000020: 8069 223d 42af 67bc 9d1b 1c3c 34f6 80bb
00000030: 2da6 a0bc bb20 ccbc a1ef 7a3a 506d 5d3c
00000040: b4de 01bc 8baf f63b 8b6e e43c d88c 983c
00000050: a7aa 963c 4291 4d3c b2e7 0cbd 6ce6 ddbc
00000060: b5e1 07bd 1ab5 ef3c 9cd3 21bd ac48 09bd
00000070: b236 f03c 1ea5 d73c cf96 2dbd aec3 d23c
00000080: 043b 29bc d137 1c3c 7e0f e6bc 6a7c e1bb
00000090: e33c 213c 6f48 0b3d 9bb3 dd3c 8e4a c7bc
000000a0: 4f96 f0bc a86f 31bb 7c41 663c 96c4 c83c
000000b0: c35b 36bd 921e 6cbb 30b7 dc3a d98b aabc
000000c0: 6e8c 103d 86cb 41bc 2bc4 2ebd af17 dbbc
000000d0: 4879 b73a 2865 08bd 497c 263c a836 323d
000000e0: ddb5 ee3a 451d 34bc ab6d 2c3d a0f7 063d
000000f0: d3ee f23c 4727 5a3b f2e2 003b b670 0ebd
00000100: a104 923b cdca 313d eceb 143b fadd 23bd
00000110: f447 c83c c3fd 233d 3a2e 193d 959d 033b
00000120: 0be8 073c cd6a e93b b006 97bc 57e1 d7bb
00000130: 812c 153d 8290 933b ba8d 2c3d 1005 f3bc
00000140: d4a0 d9bb 5873 dc39 aecd dabc af13 0d3d
00000150: 3f10 ff3c 7c7e c6bc 91da 203d ac46 2a3d
00000160: 4fc2 d7bc 9354 d6ba ae21 363d d09f eebc
00000170: c815 eabb 1361 fcbc 95c9 033d a89e ec3b
00000180: 23e3 973c 66ec 023d 1f5b edbb 534d 37bd
00000190: 2578 133b 9621 5fbb 2787 853c bfbc ab3c
000001a0: 8317 b6bc 08ac 90bc 7f7d e63c eec5 4f3c
000001b0: b1bc 263c 356a a23c f057 a93c 70d3 04bd
000001c0: c59a 623b c697 883b 2467 31bd 714c 193c
000001d0: 9f0c 40ba 9c8f 0d3d 8f5c 2fbd 40cb 2b3d
000001e0: fd77 b4bc bda3 d63c 69bd 063d 7c63 babb
000001f0: f685 bcbc 10fa f6bb 356c e5bc 1265 b13b
00000200: ab2d 993c 050f 163c 789d d3bc 0c87 c73c
00000210: b6d0 273d c36c 5fbc 37fc bd3c f6db 42bb
00000220: dc8e 933c 19ac 02bd bc73 1cbd 97b3 a8ba
00000230: d36a 1abd 80e3 833c 9561 2b3d 0640 10bc
00000240: c4fe cb39 7f88 dd3b d253 b1bc 6c56 19bb
00000250: 5caf 3b3c 5bd5 133d 0df8 17bd e737 57ba
00000260: dff0 14bd 7e88 77bb 4bb1 80ba 5c5f 99bc
00000270: a8a6 e03c b03e fc3c 6c97 8cbc 9cd0 c9bb
00000280: adb1 62bc 80f3 893a b7b0 703c 1c35 293d
00000290: be50 28bd a7b2 933c 8c0c debc 7549 16bd
000002a0: 9880 0c3d 76de 5bbc 7874 cebc 2237 463c
000002b0: 213f 1bbc 814d 28bd 5410 c0bc 6919 9bbc
000002c0: be51 67bb 8e29 f2bc 56a2 30bd a437 cb3c
000002d0: 4b82 1dbd eadf b2bb 0c0b 1d3d 5f6a 87bc
000002e0: bfe3 f2bc ed7e 423c 7391 1f3d bd1b a4bb
000002f0: 636c 32bb fc6e aa3c 478c b43b 8bd3 0a3c
00000300: c616 c13c 07b5 a53c dd99 03bd 277f 91bc
00000310: 0967 f93c 76af de3b c9f3 283c 987e 2f3d
00000320: f5c8 e13c 742f 913c 49c5 2e3d 17a6 21bd
00000330: 9888 df3b 6787 3d3c 3949 01bc 57fc acbc
00000340: 486c 053c 5ad2 17bd 79da 9cbc a7ba 0a3d
00000350: f762 87bc 9163 54bc 0eab a33c 6c77 3abc
00000360: aa62 d53b 664b 37bd 5738 d03c 8c21 23bd
00000370: 62d6 c13b 5bd0 35bd 3d4d 1dbd 1a2b 133d
00000380: d012 cabc 60ab c5ba 8729 043b 218a 283d
00000390: 8e16 693c 882f b23c 7879 9cbc 075d 7abc
000003a0: ff1c 053d 12b0 853c 7433 363c a952 0abd
000003b0: a379 12bd d25c 123c 67df 09bd e802 003d
000003c0: f948 183d 8179 98bc 53f3 ecbc 54e0 303d
000003d0: c66c c4bc 2270 12bd 995f 05bd 98cb fa3b
000003e0: 6872 0c3c 4a9c eb3c f527 133d 777c 9b3c
000003f0: a92c ce3b bb11 253d d2e4 97bc 2c9c 01bc
0.0021498809 0.007280652 -0.041511416 -0.002920834 -0.01630603 0.029727016 -0.0013956863 0.02930247
0.039651394 -0.014140906 0.009528068 -0.0039355997 -0.019610489 -0.02491795 0.00095724507 0.013514832
-0.007926632 0.0075282506 0.027884742 0.018621847 0.01839192 0.012546839 -0.03440065 -0.027087413
-0.033174235 0.02926116 -0.039508447 -0.03351657 0.029322956 0.026323851 -0.04238015 0.025728073
-0.010329012 0.009534792 -0.02808356 -0.0068812864 0.009841177 0.034004625 0.027063182 -0.024327543
-0.029368548 -0.002707461 0.014053699 0.024507802 -0.044521105 -0.0036028964 0.0016839262 -0.020818638
0.035290174 -0.011828309 -0.04266755 -0.026744692 0.0013997937 -0.033299595 0.010161468 0.043509156
0.0018212158 -0.0109933065 0.042096775 0.032950997 0.029654896 0.0033287571 0.001966652 -0.03477546
0.004456118 0.043406297 0.0022723628 -0.040006615 0.024448372 0.040036928 0.0373976 0.002008294
0.008295069 0.0071233273 -0.018435806 -0.006588142 0.036419395 0.0045033107 0.04212735 -0.0296655
-0.0066414867 0.00042047608 -0.026709404 0.0344426 0.031135676 -0.024230234 0.03927094 0.041571304
-0.02633777 -0.0016352109 0.044465713 -0.029128939 -0.00714371 -0.030808007 0.032174665 0.0072210617
0.018540924 0.03196373 -0.0072435285 -0.044751476 0.0022502032 -0.0034047118 0.016299797 0.020964025
-0.022228008 -0.017660156 0.028136013 0.012681467 0.0101768235 0.019826034 0.020671815 -0.032428205
0.0034577113 0.0041684834 -0.043311253 0.009356604 -0.00073260994 0.034560785 -0.04281288 0.04194188
-0.022029871 0.026201123 0.03289548 -0.005688129 -0.023013096 -0.007537134 -0.028005699 0.00541366
0.018698534 0.009158854 -0.025831923 0.024356388 0.040970527 -0.013636771 0.023191554 -0.0029733158
0.018012457 -0.031902406 -0.03819631 -0.0012870905 -0.03769953 0.016099691 0.04184111 -0.008804327
0.00038908992 0.0067606564 -0.021646414 -0.0023397459 0.011455383 0.036092144 -0.037101794 -0.0008209929
-0.036362525 -0.0037770565 -0.0009818462 -0.018722229 0.027423218 0.03079161 -0.017162047 -0.0061589014
-0.0138363065 0.0010524839 0.01469057 0.041310415 -0.041092627 0.018029524 -0.027105592 -0.036691148
0.034302324 -0.013419738 -0.025202021 0.012098106 -0.0094755 -0.04108954 -0.023445286 -0.018933015
-0.0035296525 -0.02956083 -0.043123566 0.024806805 -0.038454335 -0.0054588215 0.038340613 -0.016530214
-0.029649613 0.011871082 0.03895707 -0.0050081895 -0.0027225248 0.020804875 0.0055098864 0.008473287
0.02357043 0.020227922 -0.032129157 -0.017760826 0.030444639 0.006795819 0.010312029 0.04284534
0.027561644 0.017722823 0.042668615 -0.039465036 0.006821703 0.011567927 -0.007890993 -0.021116419
0.008143492 -0.03706584 -0.019147145 0.03386941 -0.016526682 -0.012963192 0.019979026 -0.011381011
0.006512006 -0.04474964 0.02541749 -0.039826915 0.005915449 -0.044388156 -0.03840374 0.035929777
-0.024667174 -0.0015080981 0.0020166354 0.041147355 0.014226569 0.02175118 -0.01910089 -0.0152809685
0.032498356 0.016319308 0.011120666 -0.033770237 -0.035760533 0.008933263 -0.03366032 0.03125277
0.037178967 -0.018612625 -0.02892462 0.043182686 -0.023977648 -0.03575147 -0.032561872 0.007653665
0.008572198 0.028761048 0.035926778 0.018980248 0.006291945 0.040300112 -0.018541727 -0.007910769

feature_extractor_part1.3.bias f4 [50]
00000000: 69f7 ebbc cd29 ce3c b833 16bc 89da 183d
00000010: e6e3 213a 8a44 11bc 402f dfbb 972b a23c
00000020: ab78 9fbc 2497 1bbd 5af1 aebc e3da 81bc
00000030: 8696 293d 3f3f ea3c edfd f9bc ba4f 05bc
00000040: a2aa a93b 4e23 c9bc abea f9bc 0426 d93c
00000050: 3ab7 a93b 3921 33bd bf24 9e3c 498d f8bc
00000060: da2c 1d3d 7b67 be3c da59 36bd 8c30 233d
00000070: 3699 cf3c 3cf2 aebc 9b01 d1bb 7537 2d3d
00000080: 30db 103d 979f f73c a1af 323d f04f 843c
00000090: 86a2 123c 15ba 42bc 8cee c13c ad01 38bc
000000a0: bc1b 013d 1754 c239 c43b e6ba 5629 333d
000000b0: 6126 d63c a917 fdbc 4891 16bd 2f46 e33b
000000c0: 5eb7 1a3c 64c4 a8ba
-0.028804498 0.025166417 -0.009167604 0.037317786 0.0006175622 -0.008866439 -0.0068110526 0.019796176
-0.019466719 -0.037985936 -0.02135532 -0.015851444 0.041403316 0.028594611 -0.030516589 -0.008136684
0.0051778117 -0.024552967 -0.030507406 0.026507385 0.005179313 -0.043732855 0.019304631 -0.030340808
0.038372852 0.023242703 -0.044519283 0.03984122 0.025341611 -0.02135574 -0.006378365 0.042289216
0.035365283 0.030227466 0.043624524 0.016151398 0.008949881 -0.011885186 0.023673318 -0.011230868
0.03152059 0.00037065215 -0.0017565419 0.043740593 0.026141347 -0.030895071 -0.036759645 0.006935857
0.009443132 -0.0012875912

feature_extractor_part2.0.weight f4 [50, 450]
00000000: ccf6 183d 3eb5 723c 98dd 8f3c 8598 22bd
00000010: d06b 403c d44c 35bc 7018 0ebb ba18 1e3d
00000020: 94e1 08bd c0a5 17bd 5ae0 bc3b 94ad 133d
00000030: 8de6 723c 160f bebc fe7d e13b 4364 863c
00000040: 2177 923c 4529 ca3c 2ea2 1bbd 99c6 383d
00000050: 28f6 a5b5 182b d9bb 45f6 163d b57e 35bd
00000060: 4522 49bc 6f1d 3dbd 010d dc3c c1fd 05bd
00000070: a91a 343d 643c 5cbc 1c51 c9bc d747 1dbd
00000080: 0a01 63bc e5b0 fc3c d543 14bd 527b 35bc
00000090: aced e0bc c6f8 7ebb 87f9 22bd 9435 15bc
000000a0: 167e 023d 6959 2d3d 9bd4 ce3b ae56 1a3d
000000b0: c0a0 d4bc 1a81 103c c951 2ebd fe1b 183d
000000c0: c434 1f3c 96de 77bb aaef 35bc f723 b7bc
000000d0: b799 eabc 894a d0bc 0524 7bbc b339 adbc
000000e0: 0f45 3abd 45db ddbc c508 38bb 774a 653b
000000f0: f86a 5b3c 31c3 1abd 2bac 14bd be95 103d
00000100: c152 2dbd afcd 173d 59d7 9fbc f5c4 683c
00000110: b269 8f3c 0662 d6bc 4a6c 16bd 54f7 903c
00000120: 6c29 aebc 5bba 88bc 2e91 73bc d0dd 03bc
00000130: 8858 0b3d dbf5 03bd 946e f93c 3592 81bb
00000140: 133a 73bc caf3 3bbd a1fe e2bb 9222 933c
00000150: aa93 f23c 48da 1f3b df63 d93b 448c 073d
00000160: d556 e73c 551a 2f3d 1736 f3bc 7d6d 7c3c
00000170: 767d b33c f386 113d 0bfc f23c acdc 78bc
00000180: 02e5 cebc e7a8 2ebd 8240 0e3d 0477 953c
00000190: a62c 9b3c ac17 0abd 3111 3a3c df83 0a3d
000001a0: d333 2ebd e577 123d 619d 22bc 7aad 12bd
000001b0: ebab 17bc 6af8 57bc 8438 3bbd 1856 fdbc
000001c0: 07de c7bb 9740 923b c765 0b3d e904 96bc
000001d0: 9075 0abd 3a52 bebc 9fde 3d3d 9da9 31bd
000001e0: a113 0c3d 5350 403c 35b3 3ebb b7ca 043d
000001f0: 562f a63b b66f 263d b1a1 173d 18e5 cfbc
00000200: 57a7 fdbc 4db4 573b f261 0c3c ec83 d23c
00000210: fa58 3a3c 8d9d 343c 2be0 f13c e00b 85bc
00000220: bff3 3b3d 1931 eebc 3695 e23c 5c33 88bc
00000230: 6a30 493c 5a50 ccbc 192a 563b a825 133d
00000240: 672b 07bd 5f7f 3fbd 5f4a 073d 6bab 27bc
00000250: a90a 983c d793 803b f958 ad3c 2a87 1f3d
00000260: b1a3 d8bc ba94 283c 06a9 1f3d b414 583a
00000270: e751 ed3c 3235 f3bc ceaf b03c f754 9f3c
00000280: adc9 2cbd c6f6 f93c a9fb 86bb 081a ad3c
00000290: 7dc8 f3bc 92d3 2dbd c27d 363d d15f 91bc
000002a0: 1ef9 6c3c ddaf 90bb 281b d4bc 3f49 3a3d
000002b0: 5bb1 003d 91a6 193c 8a85 e53c aa08 1cbc
000002c0: d4d9 493c f35a ee3b 4664 aebc 1226 f7bc
000002d0: 5564 b6bc b9a4 923c 7c82 0eba 9476 c7bb
000002e0: 1175 c23c e0e1 b6bc 4a57 283d f3a5 253d
000002f0: 9fae 3b3d 5bda 2bbd d54b 5dbc c52c 69bc
00000300: 6705 2bbd e8ae a7bc 8e5b 9a3c c20f 023d
00000310: 6763 2a3d e95d 1f3c 71b5 37bd a2fe 0e3d
00000320: 3f1d 67bc 3e46 b1bc 263b ed3c dbd1 9ebc
00000330: 67dc 3cbd 350b 693b 8bed 053d fe7d 1e3d
00000340: 9afa 13bc 1bea bebc 06dc 97bc 773b 21bd
00000350: b73d 8c3c e460 e5bc 38ae b73c 14fd 2cbd
00000360: f084 363d 7f02 9c3c 516f 873c bc71 a8bc
00000370: 80e2 b3bc eab2 123d c195 3ebc bc43 9fbc
00000380: 720c 9abc 1413 5d3c aa49 a2bb d838 28bd
00000390: d574 25bd 997d 33bd 638a 19bc ab27 53bb
000003a0: a4f7 35bd 7ab6 d2bc 4357 14bd b3ed dcbb
000003b0: 30c5 863c 4337 4c3b 9f4f 2f3d 21c4 95bc
000003c0: 206b b5bc 8095 e1bc cb7d f83b ca29 0d3a
000003d0: cc44 2bbd 8c9d 62bc 926e 19bd a8c1 37bc
000003e0: aa17 353c 91eb ebbc 5810 2ebd f0ae 55bb
000003f0: 2acb 24bd fa79 38bb a314 003d ff3d 2a3d
0.03734474 0.014813719 0.017561719 -0.039696235 0.0117444545 -0.0110656805 -0.0021682046 0.0385978
-0.033418253 -0.037023306 0.0057640495 0.03605421 0.014825475 -0.023200553 0.0068814745 0.01640523
0.01787907 0.024677882 -0.037996463 0.045111272 -1.2365099e-06 -0.0066274516 0.036855955 -0.04431029
-0.012276237 -0.04617065 0.02686167 -0.0327127 0.043970738 -0.013442133 -0.024574809 -0.03839859
-0.013855228 0.030846069 -0.036197502 -0.011076765 -0.02745708 -0.0038905605 -0.03978875 -0.009107012
0.031858526 0.042321596 0.0063119656 0.03768032 -0.025955558 0.008819843 -0.042558465 0.03713607
0.00971717 -0.003782188 -0.011104504 -0.022356017 -0.02863775 -0.025426166 -0.015328412 -0.021145677
-0.045476016 -0.027082095 -0.00280814 0.0034987011 0.013392203 -0.037783805 -0.036297005 0.035299055
-0.04231525 0.03706139 -0.019511865 0.014207114 0.017506454 -0.026169788 -0.036724366 0.01769606
-0.021259986 -0.016690424 -0.0148661565 -0.00804849 0.034019977 -0.032216888 0.030448236 -0.003954197
-0.014845389 -0.045886792 -0.006927327 0.01796082 0.029611427 0.002439158 0.00663422 0.033092752
0.028239647 0.04274972 -0.029688878 0.015406963 0.02191041 0.03552909 0.0296612 -0.015189331
-0.025255684 -0.042641547 0.03472949 0.018245228 0.018942188 -0.03371398 0.011356638 0.03381717
-0.042529892 0.03575887 -0.009925217 -0.03580997 -0.009257297 -0.013181785 -0.045708194 -0.030924842
-0.006099466 0.004463266 0.03403261 -0.018312888 -0.033803523 -0.023232568 0.046354886 -0.043374646
0.034198407 0.011737901 -0.0029098515 0.032419886 0.005071561 0.04063388 0.037019435 -0.025377795
-0.030963583 0.0032913864 0.008568274 0.02569767 0.011373753 0.011023891 0.029525837 -0.016241014
0.04588675 -0.029076146 0.02765904 -0.016626053 0.012279609 -0.024940658 0.00326789 0.035924584
-0.033000376 -0.04675233 0.03302991 -0.01023374 0.01855977 0.003923874 0.02116059 0.038947262
-0.026445242 0.010289365 0.038979553 0.0008242831 0.028969718 -0.029688451 0.021568205 0.019449694
-0.04218452 0.030513179 -0.0041193557 0.021130577 -0.029758686 -0.042438097 0.044553526 -0.017745884
0.014463691 -0.004415496 -0.025891855 0.04548001 0.03141914 0.009378091 0.028017778 -0.00952355
0.012320001 0.0072740256 -0.021288048 -0.03016952 -0.022264639 0.017900812 -0.0005436314 -0.0060871337
0.023737462 -0.022324502 0.04109887 0.040441465 0.04582083 -0.041956287 -0.013506849 -0.014231865
-0.0417532 -0.020469144 0.018842485 0.03175331 0.041598704 0.00972698 -0.04485077 0.034910806
-0.014106094 -0.02163994 0.028958868 -0.019387176 -0.04610863 0.0035559658 0.03269724 0.038694374
-0.009031916 -0.02330499 -0.018537533 -0.03936335 0.017119272 -0.028000303 0.022421941 -0.04223354
0.044560373 0.019044159 0.016532572 -0.020562045 -0.02195859 0.035815157 -0.011632384 -0.019441478
-0.018804763 0.013493318 -0.004952629 -0.041069835 -0.040394623 -0.04382095 -0.009371373 -0.003221969
-0.04442562 -0.025721777 -0.03621603 -0.006742203 0.016451448 0.0031160868 0.042800542 -0.018281998
-0.022145808 -0.027537107 0.007583355 0.000538495 -0.041813657 -0.013831507 -0.037458964 -0.011215605
0.011053005 -0.02879885 -0.042496055 -0.0032605492 -0.040232815 -0.0028148876 0.03126968 0.04156303

feature_extractor_part2.0.bias f4 [50]
00000000: c289 913c 3e85 313d 5aea aa3a 253e 253d
00000010: d80c 9bbc 03b6 133d 28df 1dbc b7ba babc
00000020: f9cb 2ebd e68a 2e3c 6924 b7bb f0eb 183d
00000030: 7d2a bebc 5da6 0cbd 2431 f93c 3c25 003d
00000040: 7b95 1c3c c779 dcbc ef7d 343c 7cb1 183c
00000050: 5cd0 1e3d 607a f03c ac15 643c 15c2 193d
00000060: 3fc5 563b 6875 e43b 8b3c b53c c472 7fbc
00000070: e599 8fbc c308 053d 3e4d 323d 8466 253b
00000080: 444e ccba 6d7a 043d 8327 3c3d 2d55 7bbc
00000090: 8be4 ca3c 97ff b0bc 733f b9bc 1798 43bb
000000a0: f443 8c3c 7ee7 e83c 462b ab3b e673 0f3d
000000b0: da30 e7bc d759 0d3d 8ae3 84bb be27 0fbc
000000c0: f5bf 0a3d 7964 553c
0.017765883 0.04333996 0.0013039813 0.04034247 -0.018927023 0.03606225 -0.009635724 -0.02279411
-0.042674992 0.010653233 -0.005589057 0.037334383 -0.02321362 -0.034338344 0.03041894 0.03128551
0.009557123 -0.026913537 0.011016353 0.009319659 0.038772926 0.029355228 0.013921183 0.037538607
0.0032771376 0.0069720037 0.022123596 -0.015591327 -0.017529437 0.03247906 0.043530695 0.0025238106
-0.001558729 0.032343317 0.04593612 -0.015340132 0.02476718 -0.02160625 -0.022613263 -0.0029845291
0.017122246 0.028430697 0.0052236645 0.03502264 -0.028221536 0.034509506 -0.004055445 -0.008737503
0.03387447 0.013024443

gnn_embd.lin_rel.weight f4 [50, 50]
00000000: 229d 05bd ea8a 343a 7a53 923d c47a 3a3c
00000010: cf3f 93bd 8d3e 023d 94c8 debd 4609 433d
00000020: 8318 b8bd 8c90 9b3d 5071 0c3e edc4 5ebd
00000030: 4ff1 94bc 3aaa cb3d 3bb4 b23d a736 edbd
00000040: 4493 043e 4e07 dc3d 21fc bebd 509b a83d
00000050: 77fd 543d 375b 96bd ac82 76bd 52e9 7ebd
00000060: 0b9e 283d 3fd8 bfbd c27c f13d dd7a 093c
00000070: 4f5f 1b3d fd83 9dbd 3ef1 d73d 58ad 67bd
00000080: e310 ca3d 3fcb 71bd 890e 6c3d 9b12 d1bd
00000090: d068 d13d 8c23 483c 4d1a 03be 20e3 00be
000000a0: 6764 ccbd fb5e 0fbd cee5 e4bd 9c34 d83d
000000b0: 5356 453d 6710 40bd ffc5 a8bc 9fa9 fbbd
000000c0: 1016 2e3d 7b8d e63d 3120 983d cae9 8bbd
000000d0: 7a76 fdbb 7c17 eb3d 5c06 a4bd dc52 a53d
000000e0: 7972 fb3d de92 0d3e d6b7 9c3c 3fa0 a03d
000000f0: 46b4 73bd 4f47 093d 58c5 ad3d 733a 9e3d
00000100: 9377 fbbd f54e e23c 434e 003e 59bb bbbd
00000110: 4f6f c6bd edaa 91bd 1725 ce3d 05f1 8cbd
00000120: c416 b43c a775 0b3e 734e d73d 4788 87bc
00000130: f34a df3c ced6 e7bd b80d d63d 2d55 a1bd
00000140: 9b80 abbd ce07 a93d a5b1 f23d ef1c 993d
00000150: 2746 2abc beaa 75bd 9417 813d 1d78 ed3d
00000160: 7440 cd3c 1155 aabd 8053 e43c 2cde d13d
00000170: 48ef 443d 66e4 f63d deb5 3cbc b1dc e6bd
00000180: 7bf4 89bd 3990 073d 6788 bb3c c5ab 9ebc
00000190: 1148 773c f2c4 02be 1df3 4ebd c9ce db3d
000001a0: daf8 c5bd 3be5 973d 5443 623d b745 b33c
000001b0: 1fef b1bc fd24 8b3d 29f9 fb3d 4754 a2bd
000001c0: 2794 f0bd ffbe 6fbc d1a2 423d 088f f33d
000001d0: e2aa 0abd 4d93 d83d 9a00 5e3d c0b6 38bd
000001e0: dec0 a13c 4732 f43b b788 2d3d 6946 bf3d
000001f0: f76d 233d 2b4d 823d 3171 593c 994e c93b
00000200: 408b f03d 60b1 873d 38b3 fd3c 4975 4cbd
00000210: de24 e43c 936e 873d aea9 583c 21fc 1cbd
00000220: cd64 b33d c360 a8bc 456a 3b3c 0e86 e9bd
00000230: d29d 00be 27f5 7d3d fe64 333d b356 07be
00000240: 0651 e03d 60d8 76bd 5140 43bd b77d 8c3d
00000250: e277 043e 3772 7e3d f798 383c 78a6 b2bd
00000260: 6895 a9bd dea9 0c3e b609 693d 1af4 e03c
00000270: 986b c23d 8691 ba3d 3e59 6dbd bdbc 01bd
00000280: 2176 b93d be0d b33c fc69 6ebc 861a d73d
00000290: c8da 713d 703f fc3d cf89 403d 5225 dd3d
000002a0: 0e53 b23b e528 a93c c762 febc f8db 063e
000002b0: 4859 bd3b c4cb 79bb 797a f0bc 3a2f 8cbd
000002c0: 80cf edbd a35e 00bc 51bb babc 6b6c e83d
000002d0: e87c ce3c 188d d6bd 3e64 c1bc 0310 443b
000002e0: 10f6 bfbc bf05 0cbe 0598 f83b 7566 09be
000002f0: 8d59 c33d 879d 1abd 4d45 fe3d 00d1 6f3d
00000300: 011a b63d a5fb 023e 57e0 3abd e359 be3d
00000310: 0278 07bd 02f2 213d 4138 eabc daf7 ea3d
00000320: f092 0a3e 769c 01bd 01e3 a43d d9c7 11bc
00000330: 4b6c 643b 9c18 183d 0038 7f3c 4c8a 60bc
00000340: be83 97bd 5c0a f13d 76e0 cc3d c26d 8bbd
00000350: f4cf 0a3e 8c1e 953d 640d e53d 4d05 103e
00000360: a924 81bb c945 333d 50e6 b0bb d5eb ad3d
00000370: 5107 c9bd 5187 e33d 08e2 b43d d58a b3bd
00000380: b369 acbd 47e5 2b3d 067f d9bd 91bd f2bd
00000390: cd16 a03d d92b 1bbd 4c57 c0bd 3e6b 0bbe
000003a0: 58da 513d 3872 153c b332 e93d 32aa 8cbd
000003b0: 3ff2 5e3d b328 e03d f225 a1bc f702 f9bd
000003c0: 3179 d2bd 7f7a d83d 58f4 04be ea59 f43d
000003d0: f479 59bd f6bb bebc 8566 92bd ef5c 42bd
000003e0: df36 05be 9ec5 4d3d 7839 c33c ce58 b93d
000003f0: 17f5 84bd cbee 0c3d 3626 f0bd 3e31 593c
-0.032620557 0.0006887155 0.07144828 0.011381809 -0.07189905 0.031797934 -0.10878101 0.047616266
-0.0898905 0.075959295 0.137151 -0.05438702 -0.018181471 0.099445775 0.087257825 -0.1158269
0.12946802 0.10743581 -0.093254335 0.082327485 0.051999535 -0.073416166 -0.060183212 -0.06223423
0.041166347 -0.093674175 0.11791374 0.008391109 0.03793269 -0.076911904 0.1054406 -0.056561798
0.09866502 -0.05903172 0.05763105 -0.10208627 0.102250695 0.012215506 -0.12803002 -0.12586641
-0.09980088 -0.03500269 -0.11176644 0.105569094 0.04817803 -0.046890642 -0.020602224 -0.12288212
0.04250151 0.11257454 0.07428015 -0.06831701 -0.007735071 0.11479089 -0.080090255 0.08072445
0.12277693 0.13825557 0.019130629 0.078430645 -0.059498094 0.03351527 0.08484906 0.07725992
-0.12278666 0.02762554 0.12529854 -0.09166593 -0.09689199 -0.0711268 0.10065668 -0.06881908
0.021983512 0.136191 0.1051301 -0.016544474 0.027257418 -0.113202676 0.104518354 -0.07877574
-0.08374139 0.08253442 0.11850289 0.07476222 -0.010392702 -0.059977286 0.06303325 0.115951754
0.025055148 -0.083170064 0.027871847 0.10247454 0.04807976 0.12055282 -0.01151797 -0.11272562
-0.06736084 0.033096526 0.02289219 -0.019369015 0.015092866 -0.12770441 -0.05052482 0.107328005
-0.09666605 0.07416769 0.05523999 0.021883829 -0.021720467 0.06794164 0.12303383 -0.07926231
-0.11747008 -0.014632939 0.047518555 0.118925154 -0.033854373 0.105749704 0.054199792 -0.04509616
0.019745287 0.0074522826 0.04236671 0.093396015 0.039899793 0.06362375 0.013271616 0.006143403
0.1174531 0.066256285 0.030969247 -0.04991654 0.02784961 0.06612887 0.013224049 -0.038326386
0.087594606 -0.020553952 0.011438911 -0.11402522 -0.12560204 0.062001374 0.043797486 -0.13216667
0.10952954 -0.060264945 -0.04766876 0.06859916 0.12936357 0.062120643 0.011266938 -0.08723158
-0.0828045 0.13736674 0.056894027 0.027460147 0.09493178 0.09109788 -0.057946436 -0.031674135
0.090557344 0.021857139 -0.014551636 0.10503106 0.059046537 0.12316787 0.047006425 0.10798134
0.00544203 0.020649383 -0.03105296 0.13169849 0.0057784654 -0.0038115839 -0.029355275 -0.06844945
-0.11611843 -0.007835063 -0.022794398 0.11348804 0.025206044 -0.1047613 -0.02360737 0.002991677
-0.023432761 -0.13674067 0.0075864815 -0.1341799 0.09538565 -0.037747886 0.12415562 0.058548927
0.088916786 0.12791307 -0.045624103 0.09294488 -0.033073433 0.039537437 -0.028591277 0.11473055
0.13532615 -0.031643353 0.0805111 -0.008897745 0.0034854587 0.037132844 0.015577316 -0.013704848
-0.07398175 0.11769554 0.1000375 -0.06808044 0.1355589 0.07281217 0.11184195 0.14064522
-0.003941138 0.043767724 -0.005398549 0.08492247 -0.098158486 0.11109794 0.088321745 -0.087667145
-0.08418598 0.041966703 -0.10619931 -0.11852563 0.07816849 -0.037883613 -0.093916506 -0.13615128
0.05123362 0.00912147 0.11386623 -0.068684 0.054430243 0.10945263 -0.019671414 -0.121587686
-0.10277022 0.10570239 -0.12983835 0.11931212 -0.05309482 -0.023282986 -0.0714846 -0.04745191
-0.13009213 0.05023729 0.023831114 0.09050141 -0.0649206 0.03440742 -0.11726038 0.013256369

gnn_embd.lin_root.weight f4 [50, 50]
00000000: 7b19 aa3d c862 94bd 650a abbd ed1a 6dbc
00000010: fb5c 01be b70d 82bc a071 d5bd 0fb4 04be
00000020: 598a 1b3a fcbd 8dbd ed7f 2fbc 5dd9 b9bd
00000030: b5e6 823c a219 6b3d 0e93 a1bd 2b3f 07bd
00000040: e553 07be a262 05be 4a1b 84bd af2b 713d
00000050: 6434 8f3d 6058 b2bd f84f 883d 0003 8ebd
00000060: 281a 063e 4aae 08bd 19c0 efbc 06d8 c9bd
00000070: 2dcc eb3d fc77 c23d effd 88bc 2a35 9d3d
00000080: 1b9f b63d 226d 833d 5146 93bd 7c84 433d
00000090: 6a80 763d 4faa 183d a6da 2fbc 0280 d6bd
000000a0: 07a0 0e3e 8e1e a6bc f645 a8bd abdf 9fbc
000000b0: 0657 a63d 7f61 82bd b8ca 0abc 138a d9bb
000000c0: c064 a3bc a2ce b83d 1c9c 24bd 6c9d 9f3d
000000d0: 6b3e db3d 997a fa3d 0e37 0f3e 9045 bb3c
000000e0: 8ccd af3d 202c 19bd 8353 d8bd 2a8a e7bd
000000f0: 843a 8dbd 7ea1 8ebc 078b a63d ca97 5b3d
00000100: 7dc2 e93d 2839 d3bd f3e7 42bd 90eb e4bd
00000110: 2325 403d ad2f 8d3c 3a14 873d dce1 ec3d
00000120: cf7e b33c 6779 d5bd 5bc9 bc3d 7e32 09bd
00000130: 9863 84bd 0713 033e bd93 a33d 409a 3c3d
00000140: 1ee7 8e3b 5d6e f73c defa 46bb 6be3 32bd
00000150: 31a0 a83d 6a88 45bd 9e11 1ebb 91aa e63d
00000160: f104 fabc 8901 d0bc 07fc 72bd ac3b e63c
00000170: 3e03 c3bd 1733 d63c d56c babd fac7 95bd
00000180: 9aea a53d 1f09 57bd a8c6 bc3d a547 afbd
00000190: 3f5e 7bbd 953b 05be 7ca6 3dbd a2c8 c83d
000001a0: 9536 cebd 7711 11bd ae05 6b3d a623 afbd
000001b0: af77 8dbc e2b6 063e 6b21 a03b 5c12 64bd
000001c0: 194e 333d 8f1f 8a3d e6e9 df3d 45fe c63d
000001d0: 4384 9e3d 2a7d 563c ab10 03be 8937 653d
000001e0: 84aa 0abe 9f81 6d3c 6298 bdbd cd68 46bb
000001f0: f5e7 c4bd 993e 9bbd f1eb 283d 9a98 a6bd
00000200: b167 d9bd fd42 9d3c 66bd ce3d 5996 68bd
00000210: 3ec0 fb3d 5288 8a3a 69c0 cbbd 1c7e 8abd
00000220: 732c 89bd e9a2 703d 952d b83d ddf9 02be
00000230: eabe e73d 862d 82bd 3322 ea3b 862b bb3d
00000240: 80b9 04be 7323 aa3d 8f70 ffbd cdf5 b03d
00000250: 97a5 e2bc c290 663d a818 8f3d c9f8 b93d
00000260: a383 833d d3e0 5d3d cf53 763c a662 d3bd
00000270: 356b a73d 2b67 d03d 107a a2bc a7c1 993c
00000280: 344f 0a3e 6ac8 d93d a63f 73bd c14c 0a3e
00000290: 477c edbd 2368 bebd ce54 693d df3b 19bd
000002a0: 8ea1 89bd 5a1e 373c 7783 2dbd f6ba 62bb
000002b0: afa6 deb9 d568 1abb 86bc 663d 2bf8 dfbd
000002c0: 1c50 20bd 58cd acbd 7f43 dbbd 0676 dc3d
000002d0: cd4a d5bd 155f ecbd 0e14 babd 188a 9b3d
000002e0: 0af0 3f3d 0a15 f63d a648 873d 6472 053e
000002f0: 9a92 4cbc 1f09 be3d d3e8 4b3d 6e5e adbc
00000300: 24a7 f5bd 9346 b43d c2ba cc3c d710 333c
00000310: 1db6 a1bd d57b 17ba 9679 d63b 72b6 9d3d
00000320: f8e5 353d e277 083d 3a30 ff3d e13c fabd
00000330: af9e 9d3c f1b0 3abc 0ffa dfbd d4b1 ccbd
00000340: 4b4f bebd a73f e83d 1780 b8bd 6031 fb3d
00000350: 8e6c 03be c0e0 0b3e 0d71 e43d 85cb b2bd
00000360: e16a 243d 50b4 493b 7ded 813d 0b52 db3c
00000370: 829a fe3d fb4e 043e 0b1f 123c 6635 95bd
00000380: da67 473d 95b4 d0bd a1fc ffbd 1dca 58bd
00000390: c42c a73d ed99 a13d 41d6 ce3d cc1f 03be
000003a0: 1d2d 073d bd54 f03c 606c d13d 1479 053d
000003b0: ebc5 36bd 966a 623c 8dc1 dcbc d226 c4bc
000003c0: b330 b6bd d67e 073e 768c 973c ff96 0cbe
000003d0: cc93 0f3d 4d8c 653d d601 85bd e1b4 6ebd
000003e0: f872 a1bd a0c1 2bbd 03d1 053e a373 a93d
000003f0: b226 92bc f6c4 0d3e 4fbd 0a3d 93a6 0f3d
0.08305641 -0.072454035 -0.08351592 -0.014471752 -0.12633125 -0.01587568 -0.10422063 -0.12959312
0.0005933396 -0.06921002 -0.010711652 -0.09074662 0.01597915 0.057397492 -0.078893766 -0.033019226
-0.13215597 -0.13025907 -0.064505175 0.05887955 0.069924146 -0.087082624 0.06655878 -0.06934166
0.13095915 -0.03336934 -0.029266404 -0.09855656 0.11513553 0.094955415 -0.016722647 0.07676156
0.08917066 0.064173 -0.07191146 0.04773377 0.06018106 0.037271794 -0.010733282 -0.10473634
0.13928233 -0.020278241 -0.08216469 -0.019515833 0.08122067 -0.06366252 -0.0084711835 -0.006638774
-0.019945502 0.09023787 -0.04018794 0.07793698 0.10705265 0.12230415 0.13985845 0.022860318
0.08584127 -0.037395597 -0.105628036 -0.113056496 -0.068959266 -0.01741099 0.08131986 0.053611554
0.11414049 -0.10313636 -0.047584485 -0.111777425 0.046910416 0.017234648 0.06595655 0.11566517
0.021911053 -0.10423546 0.09218093 -0.03349542 -0.064643085 0.12800227 0.07987163 0.04604554
0.0043610474 0.030203993 -0.003036193 -0.043673914 0.08233679 -0.048225798 -0.0024119387 0.11263002
-0.030519934 -0.025391357 -0.059322383 0.028104626 -0.09522103 0.026147408 -0.09102789 -0.07313533
0.08101387 -0.052498933 0.09217578 -0.08558587 -0.061369177 -0.1301101 -0.04630135 0.09803893
-0.100690044 -0.035417046 0.057378463 -0.08551721 -0.017268984 0.13155702 0.004886796 -0.05568157
0.04377565 0.067443006 0.109332845 0.09716467 0.07740071 0.013091365 -0.12799327 0.055961166
-0.13541609 0.014496236 -0.0925758 -0.0030274868 -0.09614555 -0.07580299 0.041240636 -0.08134575
-0.10615481 0.019196982 0.10094719 -0.056784008 0.12292527 0.0010569191 -0.09948809 -0.06762335
-0.06697931 0.058749113 0.08993069 -0.12790628 0.11315711 -0.06356339 0.00714519 0.09139161
-0.12961388 0.08307543 -0.12472641 0.08640633 -0.02766685 0.056290396 0.06987125 0.09080655
0.06421592 0.054169487 0.01503463 -0.1032155 0.08174745 0.10175928 -0.019833595 0.018769098
0.13506776 0.10633929 -0.05938687 0.13505842 -0.1159597 -0.09297206 0.05696564 -0.037410613
-0.06720267 0.01117667 -0.042361703 -0.00345963 -0.0004246733 -0.002356102 0.056332134 -0.10936006
-0.0391389 -0.08437604 -0.10706233 0.10764699 -0.10414658 -0.11541573 -0.090858564 0.07594699
0.04685978 0.12015732 0.066056535 0.13031918 -0.012486124 0.092790835 0.049782585 -0.021163192
-0.1199477 0.088025235 0.024991397 0.010929308 -0.078960635 -0.0005778645 0.006545256 0.07700814
0.04440877 0.033317454 0.1246037 -0.12218643 0.019240705 -0.011394725 -0.10936367 -0.099948555
-0.09292468 0.11340266 -0.09008806 0.12265277 -0.12834379 0.13659954 0.11154375 -0.087302245
0.04014099 0.003077764 0.063441254 0.02677252 0.12431814 0.12920754 0.008918534 -0.072855756
0.048683025 -0.10190693 -0.12499357 -0.052927125 0.08162835 0.07890687 0.100994594 -0.12805098
0.033002008 0.029337281 0.10225749 0.032586172 -0.044622343 0.013819357 -0.026947761 -0.023944292
-0.088960074 0.13231978 0.018499594 -0.13729475 0.03505306 0.056042004 -0.06494491 -0.05827797
-0.07883257 -0.041932702 0.13068013 0.08274009 -0.017840717 0.13844666 0.033871945 0.035070967

gnn_embd.lin_root.bias f4 [50]
00000000: f62d b3bd ec9c ea3d 1d71 b03c 6920 eebd
00000010: de26 81bd f0a2 833d 643a c73c df15 e3bd
00000020: 9e9a e13d 0ea3 b33c 947d d1bd 5d98 bebc
00000030: e24a b3bc b910 82bc b99b d8bd 1629 c73c
00000040: 5694 c23c 2a87 07be 35eb 863d 79bb c4bd
00000050: 8535 a93a d1c8 57bd c77a ca3d 987d 03be
00000060: f1e2 96bd 67f0 5e3c 68d5 f83d 169b 013e
00000070: f823 333d 9667 d93d 7e55 123d 8167 9b3d
00000080: a2e7 023c 46cc f9bc ce40 e33d 8a4e 2cbc
00000090: 293a 2d3d 8288 e3bc 7aa2 de3d 6f09 a23d
000000a0: 4c71 03be b771 c4bd ff8c a0bd a220 10be
000000b0: bb7d 41bd 94dc 873d d0eb 2fbc 2736 b93d
000000c0: 965c 0ebd 6b7f e73d
-0.08749001 0.11455712 0.021538312 -0.116272755 -0.063062415 0.06427562 0.024319835 -0.11088156
0.11015819 0.021928336 -0.1022903 -0.023266012 -0.021886293 -0.015877115 -0.10576577 0.024311583
0.023752373 -0.13235155 0.06587831 -0.0960607 0.0012909627 -0.052681748 0.09886699 -0.12840879
-0.073675044 0.013607121 0.12150079 0.12656817 0.043735474 0.106154606 0.035726063 0.07588101
0.007989796 -0.030492913 0.11096345 -0.010516772 0.042291794 -0.027775053 0.10870834 0.079119556
-0.12836188 -0.09592002 -0.07839393 -0.14074948 -0.047239047 0.06633869 -0.010737374 0.09043532
-0.034756266 0.113036

bn1.weight f4 [50]
00000000: 0000 803f 0000 803f 0000 803f 0000 803f
00000010: 0000 803f 0000 803f 0000 803f 0000 803f
00000020: 0000 803f 0000 803f 0000 803f 0000 803f
00000030: 0000 803f 0000 803f 0000 803f 0000 803f
00000040: 0000 803f 0000 803f 0000 803f 0000 803f
00000050: 0000 803f 0000 803f 0000 803f 0000 803f
00000060: 0000 803f 0000 803f 0000 803f 0000 803f
00000070: 0000 803f 0000 803f 0000 803f 0000 803f
00000080: 0000 803f 0000 803f 0000 803f 0000 803f
00000090: 0000 803f 0000 803f 0000 803f 0000 803f
000000a0: 0000 803f 0000 803f 0000 803f 0000 803f
000000b0: 0000 803f 0000 803f 0000 803f 0000 803f
000000c0: 0000 803f 0000 803f
1.0 1.0 1.0 1.0 1.0 1.0 1.0 1.0
1.0 1.0 1.0 1.0 1.0 1.0 1.0 1.0
1.0 1.0 1.0 1.0 1.0 1.0 1.0 1.0
1.0 1.0 1.0 1.0 1.0 1.0 1.0 1.0
1.0 1.0 1.0 1.0 1.0 1.0 1.0 1.0
1.0 1.0 1.0 1.0 1.0 1.0 1.0 1.0
1.0 1.0

bn1.bias f4 [50]
00000000: 0000 0000 0000 0000 0000 0000 0000 0000
00000010: 0000 0000 0000 0000 0000 0000 0000 0000
00000020: 0000 0000 0000 0000 0000 0000 0000 0000
00000030: 0000 0000 0000 0000 0000 0000 0000 0000
00000040: 0000 0000 0000 0000 0000 0000 0000 0000
00000050: 0000 0000 0000 0000 0000 0000 0000 0000
00000060: 0000 0000 0000 0000 0000 0000 0000 0000
00000070: 0000 0000 0000 0000 0000 0000 0000 0000
00000080: 0000 0000 0000 0000 0000 0000 0000 0000
00000090: 0000 0000 0000 0000 0000 0000 0000 0000
000000a0: 0000 0000 0000 0000 0000 0000 0000 0000
000000b0: 0000 0000 0000 0000 0000 0000 0000 0000
000000c0: 0000 0000 0000 0000
0.0 0.0 0.0 0.0 0.0 0.0 0.0 0.0
0.0 0.0 0.0 0.0 0.0 0.0 0.0 0.0
0.0 0.0 0.0 0.0 0.0 0.0 0.0 0.0
0.0 0.0 0.0 0.0 0.0 0.0 0.0 0.0
0.0 0.0 0.0 0.0 0.0 0.0 0.0 0.0
0.0 0.0 0.0 0.0 0.0 0.0 0.0 0.0
0.0 0.0

bn1.running_mean f4 [50]
00000000: 0000 0000 0000 0000 0000 0000 0000 0000
00000010: 0000 0000 0000 0000 0000 0000 0000 0000
00000020: 0000 0000 0000 0000 0000 0000 0000 0000
00000030: 0000 0000 0000 0000 0000 0000 0000 0000
00000040: 0000 0000 0000 0000 0000 0000 0000 0000
00000050: 0000 0000 0000 0000 0000 0000 0000 0000
00000060: 0000 0000 0000 0000 0000 0000 0000 0000
00000070: 0000 0000 0000 0000 0000 0000 0000 0000
00000080: 0000 0000 0000 0000 0000 0000 0000 0000
00000090: 0000 0000 0000 0000 0000 0000 0000 0000
000000a0: 0000 0000 0000 0000 0000 0000 0000 0000
000000b0: 0000 0000 0000 0000 0000 0000 0000 0000
000000c0: 0000 0000 0000 0000
0.0 0.0 0.0 0.0 0.0 0.0 0.0 0.0
0.0 0.0 0.0 0.0 0.0 0.0 0.0 0.0
0.0 0.0 0.0 0.0 0.0 0.0 0.0 0.0
0.0 0.0 0.0 0.0 0.0 0.0 0.0 0.0
0.0 0.0 0.0 0.0 0.0 0.0 0.0 0.0
0.0 0.0 0.0 0.0 0.0 0.0 0.0 0.0
0.0 0.0

bn1.running_var f4 [50]
00000000: 0000 803f 0000 803f 0000 803f 0000 803f
00000010: 0000 803f 0000 803f 0000 803f 0000 803f
00000020: 0000 803f 0000 803f 0000 803f 0000 803f
00000030: 0000 803f 0000 803f 0000 803f 0000 803f
00000040: 0000 803f 0000 803f 0000 803f 0000 803f
00000050: 0000 803f 0000 803f 0000 803f 0000 803f
00000060: 0000 803f 0000 803f 0000 803f 0000 803f
00000070: 0000 803f 0000 803f 0000 803f 0000 803f
00000080: 0000 803f 0000 803f 0000 803f 0000 803f
00000090: 0000 803f 0000 803f 0000 803f 0000 803f
000000a0: 0000 803f 0000 803f 0000 803f 0000 803f
000000b0: 0000 803f 0000 803f 0000 803f 0000 803f
000000c0: 0000 803f 0000 803f
1.0 1.0 1.0 1.0 1.0 1.0 1.0 1.0
1.0 1.0 1.0 1.0 1.0 1.0 1.0 1.0
1.0 1.0 1.0 1.0 1.0 1.0 1.0 1.0
1.0 1.0 1.0 1.0 1.0 1.0 1.0 1.0
1.0 1.0 1.0 1.0 1.0 1.0 1.0 1.0
1.0 1.0 1.0 1.0 1.0 1.0 1.0 1.0
1.0 1.0

gnn_pool.lin_rel.weight f4 [1, 50]
00000000: 1e4c 523d d964 76bd bc93 283c 0162 f0bd
00000010: 4502 c5bd 0136 b9bd 14b8 ebbd b128 ae3d
00000020: cb09 8e3d 7791 65bc 69c6 6bbc aa49 e4bd
00000030: f273 953d b070 c3bd 4c10 8fbd 41dc 9a3d
00000040: 2eef c23b 68f4 d0bd f997 8e3d 8bdf 94bd
00000050: 0882 84bb 39a5 8c3d 7249 063e aa82 04be
00000060: 806d 9bbd 2ea3 fabd b536 a33c 4237 0c3e
00000070: d8bf c6bd 6239 7d3d f9b7 9abc d3d0 b9bd
00000080: 316c b4bd 6bcd f5bd cdb8 99bd 2d7a d43c
00000090: ffde 923d 1527 40bd a1ef c4bc dfe2 0abe
000000a0: 7373 b23c 0d05 c63c 0bb4 a8bd b865 0bbe
000000b0: d2cf 863c cb3f 6c3d 3d0b 833d 6961 e0bb
000000c0: 908b 4c3d 0e16 d43c
0.051342122 -0.06015477 0.010289129 -0.11737443 -0.096195735 -0.090435036 -0.115097195 0.08503855
0.069354616 -0.014011732 -0.014390566 -0.11146863 0.072975054 -0.09542978 -0.0698553 0.07561541
0.0059489226 -0.10202867 0.0696258 -0.072692 -0.0040438212 0.06867451 0.13113955 -0.1294047
-0.07589245 -0.12238155 0.019923547 0.13692954 -0.0970456 0.061822303 -0.018886553 -0.09073033
-0.088096984 -0.12002071 -0.07505951 0.025937164 0.071714394 -0.04691227 -0.024040045 -0.13563107
0.021783566 0.02417233 -0.082374655 -0.13613021 0.016456518 0.057678025 0.06398628 -0.0068475497
0.049937785 0.025889423

gnn_pool.lin_root.weight f4 [1, 50]
00000000: f229 5abd f33d 9ebd 79bb 50bd d2eb 023d
00000010: 7f1b d7bc 1c3b 39bc 8dda 013d b8d0 05bd
00000020: ba75 37bc 10fe a3bc ecc3 3a3d 846b 5ebb
00000030: 0bee 793d f790 03be cdeb 7cbd 3403 33bd
00000040: c437 863d a855 263d 2ff1 ae3c 88e1 993d
00000050: 68d8 cb3d 2cab a4bd 8bdc bbbd 5488 f2bd
00000060: c682 5bbd 20c9 83bd 48db aabd 2965 fe3d
00000070: 37c6 d8ba 9b6d 36bc d349 32bd 5a9a bfbd
00000080: f668 6fbd f3b3 0f3e 3a82 673d 079e 9e3d
00000090: 648c e7bd fc75 a23d 62ef e3bd a966 0cbd
000000a0: 51b1 693d abe3 4fbd 62d1 8ebd 219a 9e3c
000000b0: 97b1 1fbd 1750 cf3b b85c f83d ca6d 54bd
000000c0: 0b0c 3bbd 35f1 c73d
-0.05326266 -0.077266596 -0.050960038 0.031963177 -0.026258228 -0.011305597 0.031702567 -0.032669753
-0.011197502 -0.020018607 0.045597002 -0.0033938596 0.06101803 -0.12848268 -0.061748315 -0.043704227
0.06553605 0.040609032 0.02135524 0.0751372 0.099533856 -0.08040461 -0.091729246 -0.11842409
-0.053591512 -0.06434846 -0.08342606 0.124216385 -0.0016538565 -0.01113453 -0.043527436 -0.09355612
-0.058449708 0.14033489 0.056520678 0.07744985 -0.11306074 0.0793266 -0.11129643 -0.03427759
0.057053868 -0.05075423 -0.0697353 0.019360604 -0.038987722 0.006326686 0.1212706 -0.051862516
-0.045665782 0.097628035

gnn_embd2.lin_rel.weight f4 [50, 50]
00000000: c67c 053c f882 3d3d 8de3 14bd 3474 ad3d
00000010: 9514 85bd 0969 c93d fca8 87bd 042b dabd
00000020: 274c dc3b a44a 923c 64a1 f73d 9d1c a0bd
00000030: eeab a73c cb39 663d 02cb 01be b4a2 183d
00000040: a248 883d ed93 cfbb 6f1a 473d 3e00 e83d
00000050: 8b2d 10bd e7f4 a53d 5e26 d9bd 62dc bfbc
00000060: d6c6 cfbc acb8 c03d 4c74 3fbd d083 aebd
00000070: d6fb 993d b02b a8bd 1ce7 7a3c fce4 d43d
00000080: 1f84 afbd d2c0 073e 03e0 cf3b cfe5 23bd
00000090: 8276 d2bd 9f2b 963d d9c1 27bd 9ae9 04be
000000a0: 60f9 e73b 0c80 2fbd 787b b93d 801d a7bd
000000b0: 121d cd3d 75a4 f8bd 67f1 893d 1f24 85bd
000000c0: 95a0 0d3e 632d 83bd d5f8 2a3d 622d ff3d
000000d0: 0cf5 233d 9a6e 43bd 7d06 983d b80c cc3d
000000e0: 4332 b43d a4dc e9bd bed0 f53d 4425 58bd
000000f0: 5de2 793d f617 cebc c5a0 81bd 7b8b 08be
00000100: 52d1 79bd 5b85 be3d 168c d83d fac1 99bd
00000110: 57fb 4fbd c1f5 84bd 1c38 4d3d 335a 593d
00000120: aa89 663d 8823 42bd abe1 953d 88a6 4e3d
00000130: 6717 c73d 99d2 75bc 0420 a3bd 852d a53c
00000140: 0881 df3d f062 d13c dcb4 bbbb 93f5 9cbd
00000150: 8227 4fbd bbac df3c f3a8 d33d f997 9c3c
00000160: 054e 4e3d e53e 053e 638d 96bd c473 6b3c
00000170: bce0 da3c 2fb2 6b3d a479 37bd bda1 a5bd
00000180: 3d61 1ebd 440e c3bd 4163 eabd c6d7 4f3d
00000190: 9cff 10bd 1ce4 b13d bd55 58ba 44f7 993c
000001a0: aff8 be3d 5e8d 973d 25ca e53d 8c77 0e3e
000001b0: 40e3 aa3d 767d 0f3e 7f97 06bd 27bb e33d
000001c0: cc49 95bd e313 653d 741c 6f3d 62e9 be3c
000001d0: 7799 883d 5eea 30bd 1822 603d 7376 2f3d
000001e0: 3f14 e83c 0e80 a3bd b650 7dbd 95ec 0c3e
000001f0: 705a fbbc 899d 15bd 8123 c5bd e918 14bd
00000200: d74b 773d d312 fd39 66d4 aa3d 11b1 523d
00000210: 3d8a 7b3a 88a3 c8bd e19d a13d 10c9 043d
00000220: 09e5 9f3c 2d00 d1bd c5e3 cc3b 7435 b03d
00000230: 5104 be3d 6109 08be 402b 173d fb1b 3bba
00000240: 2045 5dbc 07ee c83c 0e59 9d3d 0e6d ca3d
00000250: d604 153d cc6a 003e 072e 4a3d ba42 153d
00000260: db8d a03c bb42 5e3d b64d 823d 3e52 2fbd
00000270: fef0 343d f6e1 0cbe 8102 0b3e 7159 4a3c
00000280: df92 c9bd 9851 4c3d 3a66 063d dba9 383d
00000290: a74f a73c c6fc cbbd 5e6a 233d abb8 e73d
000002a0: 9a2a 91bc 79a8 1fbd a6e4 28bd c446 f5bc
000002b0: 5952 9bbc 101f ffbd 1f37 eb3d eca9 9fbd
000002c0: 33b8 fb3d c229 80bd 3ca2 dbbc fbb7 e5bd
000002d0: da18 01be a320 3c3d c244 ac3d 8fdc 8a3d
000002e0: 4a08 86bd c854 a3bc 1ee5 bbbd 9445 04bc
000002f0: 0894 653d da17 3cbc 1a4f 743d 6221 223d
00000300: 1168 7bbd 2eb7 0c3e bfe4 e93d 0fd6 4dbd
00000310: 7143 d83d 7967 31bd 3454 86bd 46d4 823d
00000320: 3f5d 133d 0047 f3bc 6560 183c e421 b7bc
00000330: ce23 66bd 19f1 363a 4e98 b4bd 5c02 013d
00000340: 4f6f d6bd 6427 f33d 3362 ae3b 6d27 90bd
00000350: 7387 96bd ecc6 9d3d 7e94 0d3d 57a8 e03d
00000360: 55ff d5bd 8483 f53d a2f0 9d3d e629 093d
00000370: d961 d6bc eb18 80bd a0fc a9bc ac63 6a3c
00000380: 825a b93d 45a1 533d 6132 1cbd fd1d bb3d
00000390: a910 af3d 092b afbd 3ec8 64bb c1d6 e5bd
000003a0: c094 64bd ddd6 6f3c fb4e 84bb 1616 9b3d
000003b0: c6af ffbd 13b1 babd 4a9b d83d d415 a63d
000003c0: 17cd 693d 8794 1a3c 2245 e7bd f8f4 95bb
000003d0: 97c1 dfbc 89ed 61bd 295c bcba e2b6 0b3e
000003e0: 4146 b63d 2b49 cfbd d59b 04be 26a7 0fbe
000003f0: bc11 863d 8578 e23d ee4c dbbd cd10 b93d
0.008147424 0.04626748 -0.03634982 0.084694296 -0.06498066 0.09834487 -0.06624028 -0.10652736
0.0067229453 0.017857857 0.1209133 -0.078179576 0.020467725 0.05620746 -0.12675098 0.03726454
0.066544786 -0.006334773 0.048609193 0.11328171 -0.035199683 0.08103352 -0.10603021 -0.023420516
-0.025363367 0.09410223 -0.04674177 -0.08521235 0.07518737 -0.08211458 0.01531389 0.10395238
-0.08570122 0.13257149 0.006343843 -0.040014084 -0.1027651 0.07332539 -0.040956352 -0.12979737
0.0070792884 -0.042846724 0.09056753 -0.081599236 0.1001531 -0.12140743 0.06735497 -0.0650103
0.13830788 -0.06405141 0.04174121 0.12459828 0.040028617 -0.0477129 0.074231125 0.099633634
0.08798649 -0.11419037 0.12002705 -0.052769914 0.061006892 -0.02515791 -0.063294925 -0.13334458
-0.06099064 0.09302779 0.10573594 -0.07507701 -0.050776806 -0.06492186 0.05010234 0.053064536
0.05628363 -0.047397166 0.073184334 0.050451785 0.097212605 -0.015003824 -0.07965091 0.020163307
0.10913283 0.025559872 -0.005728347 -0.07664027 -0.050574787 0.027304044 0.10334959 0.019115435
0.050367374 0.13012274 -0.07351186 0.014370862 0.02671849 0.057542976 -0.04479374 -0.0808749
-0.038666952 -0.09524205 -0.114447124 0.050742887 -0.035400018 0.086860865 -0.0008252522 0.018794663
0.093247764 0.074000105 0.11220197 0.13912791 0.08344126 0.14012703 -0.03285932 0.11119681
-0.07289466 0.05592717 0.058376744 0.023304645 0.06669896 -0.04319226 0.054720014 0.04283757
0.028329967 -0.07983409 -0.06184455 0.13762124 -0.030682772 -0.03652719 -0.096259125 -0.03615657
0.06037506 0.00048269946 0.08341293 0.051438395 0.0009595489 -0.09796816 0.07891441 0.03241831
0.019518392 -0.10205112 0.006252738 0.086039454 0.09278167 -0.13284828 0.03690648 -0.00071376533
-0.01350525 0.024527563 0.076830015 0.09884082 0.036381565 0.1254074 0.0493603 0.03644059
0.019598892 0.054262858 0.063624784 -0.04280304 0.04417514 -0.13758072 0.13575174 0.012350426
-0.098424666 0.0498825 0.032812335 0.04508386 0.020423723 -0.09960322 0.03989636 0.113145195
-0.01772051 -0.038979027 -0.04123368 -0.02994097 -0.018960165 -0.124570966 0.11485123 -0.07796082
0.122909926 -0.06257965 -0.026810758 -0.11216732 -0.12607136 0.045929562 0.08411552 0.067803495
-0.0654455 -0.019937888 -0.0917456 -0.008073229 0.056049377 -0.011480296 0.05964575 0.039582618
-0.061378542 0.13741753 0.11420583 -0.05025297 0.105597384 -0.04331157 -0.06559029 0.06388144
0.0359776 -0.029696941 0.009300326 -0.022355027 -0.05618649 0.00069786754 -0.08818112 0.03149639
-0.10470449 0.118727475 0.005321765 -0.0703877 -0.07350054 0.07703957 0.03456544 0.10969608
-0.10449091 0.11987975 0.07711913 0.033487223 -0.026169704 -0.06254753 -0.020750344 0.01430599
0.09050466 0.05166747 -0.038133983 0.09136579 0.085480995 -0.0855313 -0.0034909393 -0.11222602
-0.05580592 0.01463863 -0.0040377355 0.07572572 -0.12484698 -0.091158055 0.10576494 0.08109632
0.057080355 0.009434826 -0.11292483 -0.0045763217 -0.02731399 -0.05515817 -0.0014370728 0.13643983
0.089001186 -0.101213776 -0.1295007 -0.14028606 0.06546351 0.110581435 -0.107080325 0.090364076
