experiments/checkpoint.pt (torch, 256499 bytes, 26 tensors)

feature_extractor_part1.0.weight f4 [20, 3, 5, 5]
000000 b8 7d 74 3d 60 f8 4f bd 31 d8 b5 bc 25 bb 5e 3d
       0.059690207 -0.05077398 -0.022197815 0.054377694
000010 67 42 de bd a8 3b 8e 3d c2 fb c0 bc ad 68 71 3d
       -0.10852509 0.06944972 -0.023557547 0.058937717
000020 44 08 85 3c c4 86 64 bc 03 00 04 3d 6e 14 c1 3b
       0.016239293 -0.013948146 0.032226574 0.005892328
000030 98 8a 2d 3d 78 81 37 bd 18 85 06 bc 00 0e 27 bc
       0.0423685 -0.044801205 -0.008210443 -0.010196209
000040 06 b1 8a 3c c8 da 8a b9 c9 24 cf 3d 77 15 14 3d
       0.016930114 -0.00026484416 0.10114438 0.036153283
000050 98 4b 2f bd f4 6a 8e bd 0b ec 9c bc 67 27 4b bd
       -0.0427967 -0.069539934 -0.019155523 -0.049598124
000060 94 a6 16 bd 57 f6 b5 3b aa 1d 8d 3d 95 7e 80 3d
       -0.036779955 0.0055530476 0.068904236 0.062741436
000070 a0 da e7 bd 3b fa 91 3d 38 a0 04 3d 13 96 e0 3d
       -0.11320996 0.07127806 0.03237936 0.109661244
000080 fc 3d 9c 3d f2 15 d8 bd ab 59 e1 bd c7 c7 63 bd
       0.0762901 -0.10551061 -0.11003431 -0.055610444
000090 8b e8 cf 3d bc b3 9c bc 0d 53 49 3d e1 ac 5c bd
       0.10151776 -0.019128673 0.04915147 -0.053875808
0000a0 11 0f e8 3d e1 11 48 bd 85 5c b1 3d f9 42 97 3a
       0.11330999 -0.048845176 0.08660225 0.0011540345
0000b0 c8 fb 79 bd 9e e3 72 3d db bd 7b bd 47 51 0a 3d
       -0.061031133 0.059299104 -0.061460357 0.03376892
0000c0 37 63 09 bd 9c 57 52 bc db f5 e2 bd 15 b9 60 bd
       -0.033541884 -0.0128382705 -0.110820495 -0.054864008
0000d0 d2 b3 80 3d 00 79 e4 bc bc ea eb 3d 38 f7 bd 3d
       0.06284298 -0.027889729 0.115193814 0.09275669
0000e0 8e c6 aa bb fe 74 9d bd 13 62 90 3d 60 8d 13 3d
       -0.005211658 -0.0768833 0.07049956 0.036023498
0000f0 15 77 98 bd d5 ff 99 3d 96 f6 8f 3d 64 21 d2 3d
       -0.07444588 0.07519499 0.070294544 0.10260275
000100 e1 24 84 bd b7 1c 9a bc 3a 31 06 bb f9 bd 8b 3c
       -0.064523466 -0.01881252 -0.0020476119 0.01705836
000110 fb 0d b3 bd 26 5e a7 bd ee 0e 81 3d 40 36 dc bc
       -0.08742901 -0.08172254 0.06301676 -0.026881337
000120 1f d5 67 3d c4 72 de 3b 27 31 1c 3d d1 23 ce 3c
       0.056599732 0.0067885835 0.038132813 0.025163563
000130 43 0d 2b 3d 39 9e 69 3d 65 58 db bd fb 64 6d 3d
       0.041760694 0.05703566 -0.10710219 0.05795763
000140 48 c2 a6 bd 38 ec b2 bd 41 cb de 3b b7 c7 a2 bc
       -0.08142525 -0.087364614 0.006799132 -0.019870622
000150 da 82 8a 3d 59 74 89 bd b0 c3 d2 bd e2 93 ab 3d
       0.06763239 -0.06711645 -0.10291231 0.08377816
000160 af 27 8e bc 0b 8a 84 3d c4 ec 16 3d e2 ef b1 bd
       -0.017352907 0.06471642 0.03684689 -0.08688332
000170 c3 8a bb 3c af df e0 3c 50 d8 9e bd 94 a9 61 bd
       0.022893315 0.02745041 -0.07756102 -0.055093363
000180 ac f2 1f 3d 2d c1 a6 3c 0d 68 4a bd fa 3b 10 bd
       0.03904979 0.020355785 -0.049415637 -0.035213448
000190 97 45 d8 3d 89 76 b0 bc 2d 0a 85 3d 22 bd 4c 3d
       0.10560148 -0.021540897 0.064960815 0.04998506
0001a0 5a cd 98 bd 5d 77 c9 bd ff 83 e2 3d e0 8c bf 3b
       -0.07461043 -0.0983722 0.110603325 0.005845651
0001b0 5c e9 a1 3d e2 6d c3 3c 96 53 17 3d 0e 0f b0 3d
       0.07905838 0.023856107 0.036944948 0.085966215
0001c0 dd aa df 3d a6 4b 9d bd 95 f9 69 3c c8 f8 af 3d
       0.109212615 -0.076804444 0.014280696 0.08592373
0001d0 0a 94 aa 3d e9 2e 92 3d 84 97 ab bd 64 a3 aa bd
       0.083290175 0.07137854 -0.08378509 -0.083319455
0001e0 18 ba 8f bd c1 84 67 3c 2f 02 eb 3d 94 df 95 bd
       -0.070179164 0.014130772 0.11475026 -0.07318035
0001f0 89 3b 7b 3d 8c 59 83 bd 26 cd de bd 96 bb ca bc
       0.061336074 -0.06413564 -0.10878973 -0.024747651
000200 63 e7 87 3d 20 31 db 3d 11 58 93 bd 19 3e cb 3c
       0.066359304 0.10702729 -0.07194532 0.024809884
000210 ca 96 cb 3d 2b 51 9c 3d e1 ff 92 3d 6d 8c a7 3d
       0.0994087 0.07632669 0.07177711 0.08181081
000220 b9 06 95 3d 05 3a f2 3c f8 2d a2 bd 5f 0e c7 bd
       0.07276673 0.029568681 -0.07918924 -0.09719538
000230 93 d2 59 bd 2b 32 61 bc 94 94 91 bd 68 da 2b 3d
       -0.053179335 -0.013744871 -0.07108417 0.041956335
000240 91 5a 11 3d ef b2 d8 bc 1b 70 34 3d d9 7d 17 3d
       0.03548676 -0.02645251 0.044052225 0.036985252
000250 e9 c1 8f 3d 0e ba 9e 3d 03 f8 21 bd 5c 24 e6 3d
       0.07019407 0.07750331 -0.039543163 0.11237404
000260 c5 9f 61 bc 5f fa 8e bb 4a ff df bd 8b 25 99 bd
       -0.013771002 -0.0043633427 -0.109373644 -0.07477864
000270 90 23 8b bd 18 0f 4c bd 31 46 a7 3d 54 32 1c bd
       -0.067938924 -0.049819082 0.08167685 -0.038133934
000280 7f 6c b1 bd 88 ed 33 3d 48 9d 15 3d dd 3e 98 3d
       -0.08663272 0.0439277 0.03652695 0.07433865
000290 2a 8c 76 bd 5a f3 ca 3c 81 d9 2d bd aa 74 d8 bc
       -0.060192265 0.024774242 -0.042443756 -0.026422817
0002a0 18 6f bd bd 8d 71 59 bd 0c ab 11 bd 76 14 49 3d
       -0.09249705 -0.053086806 -0.035563514 0.04909178
0002b0 98 c2 a9 3c 1e 59 e6 3c 0d 32 eb 3d c8 f6 e5 3d
       0.020722672 0.028118666 0.11484156 0.112287104
0002c0 6a cd a0 3d 60 73 64 3b bb f1 a3 bd 33 6e b8 3d
       0.078516796 0.0034858808 -0.08005091 0.09005394
0002d0 53 ed ed bc 69 71 1b bc 20 08 cc bd bc 52 bc bc
       -0.029043829 -0.009487488 -0.09962487 -0.02298867
0002e0 66 eb 98 bd 09 0f d9 3d be ae cc bd 6b 96 b8 bd
       -0.07466774 0.10598571 -0.09994267 -0.09013065
0002f0 54 9f 86 bb 30 50 80 bd 12 2b 29 3d 08 7b 36 bd
       -0.004108349 -0.062652946 0.04130084 -0.044550925
000300 11 a4 5e bd d5 2c d0 3b a5 a5 aa 3d 25 15 a6 bd
       -0.054355685 0.0063530006 0.083323754 -0.08109502
000310 85 f0 5d 3d d3 a7 97 3d b8 ec e6 3d f8 0d a6 bd
       0.054184455 0.07405057 0.11275619 -0.08108133
000320 89 8c e1 3c 2c c0 af bd 53 0b c9 3d 01 13 39 bd
       0.027532833 -0.08581576 0.09816613 -0.04518414
000330 85 a7 8d 3d 53 ce 43 3b f6 17 1b bc 4f 78 86 bb
       0.069167174 0.0029877617 -0.009466162 -0.0041036974
000340 57 6b 9d 3c 39 52 5d 3d 8b f9 94 3c 21 47 0e 3d
       0.019216223 0.05403349 0.018185398 0.034735803
000350 b5 96 d5 bd e7 61 ab 3d fa 4a cd 3d a3 f0 c2 3d
       -0.10429136 0.08368283 0.10024066 0.09518554
000360 e9 f9 ad 3d 36 9a ab bd 71 38 31 bd d4 96 cf 3d
       0.08494932 -0.08379023 -0.043266717 0.1013619
000370 8f 89 b4 bd b2 f0 d5 3d f8 bf ba bd cc 60 a7 bd
       -0.088153 0.104462996 -0.091186464 -0.081727594
000380 3b 9e 65 3d 29 7a a9 bd ad ce d6 bc dd 8c ac 3d
       0.056059103 -0.08275253 -0.026221598 0.08425305
000390 03 d6 bb 3d 15 31 e0 3d 4a 40 be bc 15 4f b7 bd
       0.09171679 0.10946862 -0.023224015 -0.089506306
0003a0 f4 5d e9 3d e1 5e c7 bc 41 79 41 bd 60 2f e8 3c
       0.11394873 -0.024337234 -0.047234777 0.028342903
0003b0 3c e4 a4 bd 74 f4 9b 3d 74 bf 94 3d 80 0d bb bd
       -0.08051345 0.07614985 0.07263079 -0.09133434
0003c0 c3 d4 c1 bd 98 fa 21 bc 40 af 47 3d 58 7d 49 bb
       -0.09464409 -0.009886406 0.048751116 -0.0030744877
0003d0 e4 91 6e bd af c9 3a 3b 6f cf dd bd 51 9f a6 bd
       -0.0582446 0.002850156 -0.108305804 -0.08135856
0003e0 6c dd 9c bd 8a 5f c3 3d 01 24 d0 3d 23 34 20 bd
       -0.0765942 0.09539707 0.10163117 -0.03911222
0003f0 4a bf b0 3b f6 de 53 3d 32 95 66 3c 45 ce 6d bd
       0.005393897 0.051726304 0.014073657 -0.058058042

feature_extractor_part1.0.bias f4 [20]
000000 de 6b 1d bd fa f6 3e bd fd d1 d0 bc c7 0c ae bd
       -0.03843295 -0.046622254 -0.025490755 -0.08498531
000010 55 fb d7 3b 4b a9 92 bb 37 4e f7 bc 4d cf cc 3d
       0.0065912404 -0.0044757477 -0.030188663 0.10000477
000020 4b 52 9e 3d f9 60 05 3d e1 67 2f bd 44 1d 74 3c
       0.0773054 0.032563183 -0.042823676 0.014899556
000030 9c 18 a2 bd 55 56 a5 3d 93 60 dd 3d 16 c4 8e bc
       -0.0791485 0.08073107 0.10809436 -0.017427485
000040 a2 d9 b6 3d 40 89 dd 3d 90 87 e9 bb 94 ac 2f bd
       0.08928229 0.10817194 -0.007126756 -0.042889193

feature_extractor_part1.3.weight f4 [50, 20, 5, 5]
000000 bf 33 11 3b 53 58 ef 3b c9 32 2a bd c6 70 43 bb
       0.0022156087 0.0073042302 -0.04155234 -0.0029821857
000010 21 d7 85 bc a8 da f3 3c a2 61 bc ba 72 6c ef 3c
       -0.016337933 0.02976735 -0.0014372359 0.029226515
000020 31 f7 21 3d a6 8a 68 bc 78 a0 1c 3c 81 f2 80 bb
       0.03954238 -0.014193213 0.009559743 -0.0039351587
000030 83 f7 a0 bc 1e ce cc bc 29 36 74 3a 85 99 5e 3c
       -0.019649273 -0.025000628 0.0009315932 0.013586407
000040 5f 17 00 bc 81 e6 f8 3b 85 ae e4 3c d4 da 98 3c
       -0.007818072 0.0075958376 0.027915249 0.018659033
000050 da 9f 97 3c f6 6f 50 3c 8f 40 0c bd e1 fe dc bc
       0.01850884 0.012722006 -0.034241255 -0.026977004
000060 53 38 07 bd 35 af ef 3c e5 11 22 bd e5 8d 09 bd
       -0.0330127 0.02925835 -0.039567847 -0.033582587
000070 67 d9 ef 3c fb a5 d7 3c f7 bf 2d bd 67 0b d2 3c
       0.02927847 0.026324263 -0.0424194 0.025640203
000080 d0 9c 2a bc 37 56 1b 3c f8 f8 e5 bc 82 11 e3 bb
       -0.010413364 0.009481004 -0.02807282 -0.0069295773
000090 4f 91 20 3c 34 1a 0b 3d 96 ce dd 3c 73 b5 c6 bc
       0.009800269 0.033960536 0.027076047 -0.024256444
0000a0 11 86 ef bc 8e 74 25 bb 71 13 67 3c 1c 60 c9 3c
       -0.029238733 -0.0025246474 0.014103756 0.024581961
0000b0 bc ea 35 bd 36 c2 5c bb c5 ed f7 3a d1 5c a9 bc
       -0.044413313 -0.0033685095 0.0018915465 -0.020674141
0000c0 83 25 11 3d 69 6c 3e bc 81 26 2e bd ae d6 d9 bc
       0.035436165 -0.011622527 -0.04251719 -0.026591625
0000d0 65 62 cf 3a 38 ae 07 bd 43 72 28 3c b0 03 33 3d
       0.001582217 -0.033125132 0.010281148 0.04370469
0000e0 1d 3f 05 3b e0 70 30 bc 29 23 2d 3d 57 49 07 3d
       0.0020331808 -0.010769099 0.04226986 0.033028927
0000f0 1a 30 f4 3c 1e ce 62 3b d0 28 08 3b b7 27 0e bd
       0.029808093 0.0034607719 0.002077628 -0.034705844
000100 04 03 94 3b 8f 28 32 3d ea b3 18 3b 31 ae 23 bd
       0.004516961 0.04349571 0.0023300597 -0.039961044
000110 02 a9 c8 3c ef 1e 24 3d 67 5b 19 3d 8e 54 05 3b
       0.024494652 0.040068563 0.037440684 0.0020344588
000120 0b 39 08 3c d4 cb e9 3b 6f 06 97 bc 75 8a da bb
       0.008314381 0.007134894 -0.018435685 -0.0066693374
000130 59 53 15 3d b7 cd 94 3b f0 36 2d 3d 25 10 f2 bc
       0.03645644 0.0045411247 0.04228872 -0.029548714
000140 6e 79 de bb cb 10 a9 39 c3 83 db bc e3 33 0d 3d
       -0.006789378 0.00032246704 -0.026796227 0.03447331
000150 25 f3 ff 3c 90 88 c7 bc e3 48 20 3d b6 7f 29 3d
       0.03124387 -0.02435711 0.03913201 0.04138156
000160 05 85 d7 bc 50 ee d0 ba 2e de 35 3d 37 5e ee bc
       -0.026308546 -0.0015940163 0.04440134 -0.02909766
000170 9e 7b ef bb cf e0 fc bc 16 b4 03 3d 64 1e ec 3b
       -0.0073084375 -0.030868916 0.032154165 0.0072057713
000180 a4 d5 97 3c c1 28 02 3d 61 c0 f2 bb 2c ac 36 bd
       0.018534489 0.031777147 -0.0074081873 -0.04459779
000190 63 ac 1d 3b cf bb 50 bb 57 a9 87 3c 87 3b ae 3c
       0.002405905 -0.0031850224 0.01656024 0.02126862
0001a0 ee 91 b4 bc 8a 12 90 bc 0e 69 e7 3c df 4a 52 3c
       -0.022042241 -0.017586965 0.028248336 0.0128352335
0001b0 fb 00 29 3c 39 3b a3 3c fc 73 a9 3c 4c c7 04 bd
       0.010315175 0.0199257 0.020685188 -0.032416627
0001c0 0f 1a 63 3b 85 f0 89 3b 91 3c 31 bd 99 75 18 3c
       0.0034652983 0.0042095804 -0.04327065 0.009305381
0001d0 2c 90 4a ba 85 6e 0d 3d a6 6f 2f bd 94 cf 2b 3d
       -0.0007727172 0.034529228 -0.042831086 0.04194601
0001e0 94 37 b5 bc 5f 0a d6 3c 7c 70 06 3d a4 81 bb bb
       -0.022121228 0.026127992 0.032822117 -0.0057222415
0001f0 49 a4 bc bc f5 1a f8 bb 47 f8 e5 bc 3f fd af 3b
       -0.023027556 -0.007571573 -0.02807249 0.0053707655
000200 f3 2d 99 3c 81 e7 16 3c 70 5d d3 bc e8 d9 c7 3c
       0.018698668 0.009210468 -0.02580139 0.024395898
000210 ff fd 27 3d e3 19 5e bc 61 e5 be 3c 13 7f 39 bb
       0.041013714 -0.013555977 0.023302736 -0.0028304502
000220 0f df 94 3c 6b 0c 02 bd e8 e8 1b bd a1 71 96 ba
       0.018172769 -0.031750124 -0.038063914 -0.0011477956
000230 a6 a4 19 bd c8 71 85 3c d1 fc 2b 3d f1 12 0e bc
       -0.037510537 0.016289607 0.04198915 -0.008671508
000240 8f ae 08 3a 1e c0 e2 3b 18 ec af bc 23 52 11 bb
       0.00052139995 0.006919875 -0.021474883 -0.0022174201
000250 49 29 3d 3c 25 2a 14 3d 73 a0 17 bd 9f d3 3b ba
       0.011545488 0.036173005 -0.03701825 -0.0007165018
000260 19 6a 14 bd 7a 3c 69 bb 30 99 4d ba 82 d0 98 bc
       -0.036233995 -0.0035589025 -0.0007842956 -0.018654112
000270 2d af e1 3c 47 1b fd 3c cc aa 8a bc 17 1a c4 bb
       0.02754935 0.030896796 -0.016927145 -0.0059845555
000280 65 f2 60 bc fc 2b 97 3a 2b d7 70 3c 70 8d 29 3d
       -0.013729666 0.0011533494 0.014699738 0.04139465
000290 bd c9 27 bd c5 2c 94 3c c2 f0 dd bc fe 9d 16 bd
       -0.040963877 0.018087754 -0.027092341 -0.036771767
0002a0 92 51 0c 3d 42 0d 5b bc ae 2c ce bc bf 4f 45 3c
       0.03425748 -0.01336986 -0.02516779 0.012042939
0002b0 88 72 1d bc 9a 83 28 bd 3c fe bf bc a0 fe 99 bc
       -0.009609826 -0.04114113 -0.023436658 -0.018798172
0002c0 77 8d 5d bb 2d fd f0 bc ad 22 30 bd 62 e0 cb 3c
       -0.0033806243 -0.029417599 -0.04300182 0.024887268
0002d0 46 00 1d bd e2 7b ae bb 09 98 1d 3d d1 97 86 bc
       -0.03833034 -0.0053248266 0.03847507 -0.016429814
0002e0 5e 30 f2 bc c3 2c 44 3c da fa 1f 3d 1f f1 a0 bb
       -0.029564079 0.011973563 0.03905759 -0.0049115564
0002f0 4f 70 2d bb ab ec aa 3c 34 36 b6 3b 3c ba 0b 3c
       -0.0026464646 0.020864805 0.0055606607 0.008528288
000300 02 91 c1 3c 87 25 a6 3c ef 6b 03 bd e7 5d 91 bc
       0.023628715 0.020281566 -0.032085355 -0.017744971
000310 f9 94 f9 3c ec bc df 3b 5f 85 29 3c 7f 95 2f 3d
       0.030466544 0.006827941 0.01034674 0.04286718
000320 3c d3 e1 3c 64 f8 90 3c 0b 9e 2e 3d 64 c4 21 bd
       0.027566545 0.017696567 0.04263119 -0.039493933
000330 9f eb df 3b f5 ed 3d 3c b0 9a 01 bc c4 4c ad bc
       0.006833508 0.011592378 -0.0079104155 -0.021154769
000340 9d f0 04 3c 07 c0 17 bd e0 69 9c bc fc cd 0a 3d
       0.008114007 -0.037048366 -0.019093454 0.03388785
000350 8d 6f 87 bc 04 99 54 bc 67 ed a3 3c fe d6 38 bc
       -0.016532684 -0.012975935 0.020010663 -0.011281727
000360 18 83 d8 3b 62 f7 36 bd d7 d1 d0 3c c0 ca 22 bd
       0.0066074245 -0.044669516 0.025490684 -0.03974414
000370 f8 ab c6 3b ad 21 35 bd ea aa 1c bd 96 86 13 3d
       0.0060629807 -0.04422157 -0.038248934 0.036017023
000380 e9 55 c9 bc ee b2 a2 ba f6 6e 16 3b c3 21 29 3d
       -0.024577098 -0.0012412944 0.0022954321 0.041291963
000390 8e e6 69 3c 54 d3 b2 3c 05 54 9a bc a9 8f 75 bc
       0.01427616 0.021829285 -0.018838892 -0.0149878645
0003a0 d6 d9 05 3d 45 19 86 3c f4 64 37 3c 70 98 09 bd
       0.032678448 0.016369471 0.011193503 -0.03359264
0003b0 19 bf 11 bd 16 22 14 3c 12 95 09 bd 90 36 00 3d
       -0.035582636 0.00904133 -0.03358943 0.031302035
0003c0 88 8d 18 3d 8b b5 97 bc c3 25 ec bc 4b 0c 31 3d
       0.03724435 -0.018519184 -0.0288266 0.043224614
0003d0 c9 74 c4 bc 81 5f 12 bd 60 4e 05 bd 1f cf fb 3b
       -0.023981469 -0.03573561 -0.032545447 0.007684603
0003e0 c5 43 0c 3c 03 41 eb 3c c8 4c 13 3d f4 c5 9b 3c
       0.008561079 0.028717523 0.035961896 0.01901529
0003f0 95 4f cf 3b eb 56 25 3d ec 43 97 bc 9d 23 00 bc
       0.0063266256 0.040366095 -0.018465005 -0.007820991

feature_extractor_part1.3.bias f4 [50]
000000 59 79 eb bc 99 e6 cb 3c e9 4d 17 bc 88 49 18 3d
       -0.028744387 0.024890231 -0.009234884 0.0371795
000010 64 b3 36 3a 36 bf 12 bc 7c 73 dc bb f5 ea 9f 3c
       0.00069694803 -0.008956721 -0.006727634 0.019521216
000020 b7 05 a0 bc 2e 1d 1b bd 0a 96 af bc 8a bb 82 bc
       -0.019533975 -0.037869625 -0.021433849 -0.015958566
000030 0c e3 29 3d e6 96 e9 3c d5 1f fa bc c3 f0 03 bc
       0.041476294 0.028514337 -0.030532757 -0.008053008
000040 92 92 a7 3b 8e e4 c9 bc ce c7 fa bc 19 ff d9 3c
       0.005113908 -0.024645116 -0.030612852 0.026610898
000050 35 c2 ac 3b 33 b7 32 bd 35 06 9f 3c 8d 86 f8 bc
       0.0052721747 -0.043631744 0.01941214 -0.030337596
000060 53 d2 1d 3d 08 3a bf 3c 68 43 36 bd dd 69 23 3d
       0.03853066 0.023343101 -0.044497877 0.03989588
000070 7a 71 cf 3c 0b 5a af bc 35 e1 d5 bb 71 90 2d 3d
       0.025322665 -0.02140524 -0.006527091 0.04237408
000080 30 14 10 3d 9b 58 f8 3c a5 c8 32 3d 78 13 85 3c
       0.035175502 0.030315688 0.04364838 0.016244635
000090 ef 65 14 3c 7b d3 43 bc 9e 15 c1 3c b3 aa 36 bc
       0.009057506 -0.011952276 0.023569878 -0.011149096
0000a0 74 c2 01 3d 44 91 71 39 bd 6d e8 ba 2e d9 32 3d
       0.031679586 0.00023037667 -0.00177329 0.04366415
0000b0 7b 69 d5 3c b1 dd fd bc 49 6d 16 bd 18 53 e5 3b
       0.026051274 -0.0309895 -0.036725316 0.006998431
0000c0 d3 9e 1c 3c 77 35 b1 ba
       0.009559351 -0.0013519962

feature_extractor_part2.0.weight f4 [50, 450]
000000 30 cb 14 3d d1 4b 62 3c f3 9f 87 3c 3d 6c 1e bd
       0.036326587 0.013812021 0.016555762 -0.038677443
000010 29 20 30 3c 01 0a 25 bc fa e9 ac ba c0 ec 19 3d
       0.010749855 -0.010073186 -0.0013192289 0.037579298
000020 53 b7 04 bd 40 7a 13 bd fe 70 9d 3b 61 82 0f 3d
       -0.032401394 -0.03600526 0.0048047295 0.03503645
000030 0c 7d 62 3c bc c5 b5 bc b8 b0 c1 3b 08 54 7c 3c
       0.013823759 -0.022189014 0.005910959 0.015400894
000040 a4 38 8a 3c bc dd c1 3c 62 76 17 bd 0c 99 34 3d
       0.016872711 0.023665302 -0.036978133 0.04409127
000050 66 fc f9 a8 6d 70 b9 bb d0 ca 12 3d 55 51 31 bd
       -2.7754014e-14 -0.005659154 0.03583795 -0.043290455
000060 6a d0 38 bc aa ef 38 bd a8 be d3 3c c7 d3 01 bd
       -0.011280159 -0.045150436 0.025847748 -0.031696107
000070 5b ed 2f 3d 9a de 4b bc b7 05 c1 bc ee 1b 19 bd
       0.04295097 -0.012443209 -0.023562295 -0.03738015
000080 82 9f 52 bc 7b 5e f4 3c 94 18 10 bd 51 38 25 bc
       -0.012855412 0.029830208 -0.03517969 -0.010084228
000090 a6 9e d8 bc 13 41 42 bb 3a cd 1e bd 74 13 05 bc
       -0.026442837 -0.0029640838 -0.038769938 -0.008122314
0000a0 e4 a8 fc 3c 77 2c 29 3d 1a 33 af 3b fc 2a 16 3d
       0.030842252 0.04130217 0.005346668 0.036662087
0000b0 84 53 cc bc ee 64 00 3c c7 24 2a bd 73 f0 13 3d
       -0.024942167 0.0078365635 -0.04153898 0.036117982
0000c0 0a 07 0f 3c 06 57 3b bb 4d ac 25 bc fd db ae bc
       0.008729706 -0.0028585806 -0.0101118805 -0.021345133
0000d0 69 49 e2 bc f9 fd c7 bc c3 b6 6a bc e6 f3 a4 bc
       -0.027622895 -0.024413096 -0.0143258 -0.020135831
0000e0 6f 17 36 bd ae 8c d5 bc 3e a2 fb ba 60 4e 29 3b
       -0.04445594 -0.026068058 -0.0019198132 0.0025834069
0000f0 aa 0d 4b 3c 73 97 16 bd e3 80 10 bd cf 6a 0c 3d
       0.0123933945 -0.036765527 -0.035279166 0.034281548
000100 cf 25 29 bd 2a a2 13 3d e4 94 97 bc 6a 60 58 3c
       -0.041295823 0.036043324 -0.018503614 0.013206581
000110 33 2c 87 3c 84 14 ce bc df 40 12 bd 52 b9 88 3c
       0.016500568 -0.025156267 -0.035706397 0.01668993
000120 64 e3 a5 bc 3b 7f 80 bc 5f 27 63 bc d4 a7 e7 bb
       -0.02025003 -0.015685668 -0.013864367 -0.007069567
000130 09 2e 07 3d 22 98 ff bc 85 1c f1 3c ab 51 46 bb
       0.033002887 -0.031200472 0.029432544 -0.003026108
000140 6a d0 62 bc 15 c6 37 bd 26 2e c3 bb dd e3 8a 3c
       -0.013843635 -0.04486664 -0.005956429 0.016954357
000150 66 42 ea 3c 3c ef cd 3a ae a8 b9 3b 22 62 03 3d
       0.028596114 0.0015711556 0.00566586 0.03207601
000160 f6 06 df 3c 49 ed 2a 3d c2 e4 ea bc b0 ff 6b 3c
       0.027224999 0.0417302 -0.028673533 0.014404222
000170 42 36 ab 3c ee 5b 0d 3d bb aa ea 3c 6e 70 68 bc
       0.020899896 0.0345115 0.028645864 -0.014186962
000180 ad 98 c6 bc e2 7b 2a bd c5 15 0a 3d 93 37 8d 3c
       -0.024242723 -0.04162205 0.033712167 0.017238414
000190 7e eb 92 3c 4c ed 05 bd 74 ca 29 3c 73 59 06 3d
       0.017934557 -0.032697007 0.01036321 0.03280015
0001a0 d4 06 2a bd cb 4c 0e 3d 08 6c 12 bc 5c 82 0e bd
       -0.041510418 0.034741204 -0.0089368895 -0.03479229
0001b0 ca 86 07 bc 10 9d 47 bc d7 0a 37 bd 9e 03 f5 bc
       -0.008271882 -0.012183443 -0.044688072 -0.029908951
0001c0 eb 4e a8 bb 10 f1 66 3b 48 3b 07 3d 48 c5 8d bc
       -0.005136361 0.00352389 0.03301552 -0.017305985
0001d0 26 4b 06 bd d2 08 b6 bc cd b0 39 3d 71 7c 2d bd
       -0.03278651 -0.022221003 0.045334626 -0.042355005
0001e0 11 e9 07 3d c5 04 30 3c 0d 2c 04 bb da a0 00 3d
       0.033181254 0.010743325 -0.0020167858 0.0314034
0001f0 93 0e 87 3b 30 43 22 3d 31 76 13 3d 98 98 c7 bc
       0.0041216104 0.039614856 0.036001388 -0.024364755
000200 d3 54 f5 bc dd 2c 1c 3b cd 96 f8 3b 02 37 ca 3c
       -0.029947674 0.0023830452 0.007586336 0.024684433
000210 03 12 2a 3c 47 5b 24 3c fa 8e e9 3c 4c a4 79 bc
       0.010380271 0.010031528 0.02851056 -0.015236925
000220 0a c6 37 3d 5b e0 e5 bc f7 45 da 3c dc f0 7f bc
       0.0448666 -0.028061083 0.02664469 -0.01562139
000230 85 de 38 3c 74 04 c4 bc c9 b0 1a 3b 80 fa 0e 3d
       0.011283522 -0.023927905 0.0023603907 0.034906864
000240 4e 01 03 bd 7a 51 3b bd 45 20 03 3d f5 74 17 bc
       -0.031983666 -0.045732 0.032013196 -0.009244193
000250 6e ca 8f 3c bc 61 44 3b 21 13 a5 3c 15 5b 1b 3d
       0.01755258 0.002996548 0.020150723 0.03792866
000260 d8 55 d0 bc 60 5d 18 3c ee 7c 1b 3d d1 51 5f 39
       -0.025431558 0.009299606 0.03796094 0.00021297416
000270 42 01 e5 3c dd e3 ea bc 34 69 a8 3c a6 12 97 3c
       0.027954701 -0.028673107 0.020557977 0.01844151
000280 c3 9c 28 bd a6 a4 f1 3c 27 e2 50 bb 40 d4 a4 3c
       -0.041165125 0.029497456 -0.0031873079 0.02012074
000290 12 77 eb bc 99 a6 29 bd 56 50 32 3d aa 21 89 bc
       -0.0287433 -0.041418646 0.043533646 -0.016739685
0002a0 75 92 5c 3c 95 df 63 bb 01 ce cb bc 9e 1b 36 3d
       0.013462652 -0.0034770716 -0.024878504 0.04445993
0002b0 cd 0f f9 3c 1b 7f 09 3c e6 35 dd 3c 74 de 0b bc
       0.030403042 0.008392121 0.02700324 -0.008536924
0002c0 79 87 39 3c 74 73 ce 3b 33 1e a6 bc 45 d4 ee bc
       0.011323803 0.006300384 -0.020278072 -0.029153952
0002d0 84 1c ae bc 29 66 8a 3c 61 fa 91 b8 92 e8 a7 bb
       -0.021253832 0.016894417 -6.9607755e-05 -0.00512416
0002e0 e1 2a ba 3c f4 99 ae bc a6 2a 24 3d 7a 79 21 3d
       0.022725524 -0.021313645 0.040079735 0.03942249
0002f0 eb 80 37 3d 81 ad 27 bd 73 ed 4c bc 05 c8 58 bc
       0.04480068 -0.04093695 -0.012507784 -0.013231282
000300 9b d8 26 bd 69 6a 9f bc a6 1a 92 3c 51 cc fb 3c
       -0.040733915 -0.01945992 0.017834973 0.030737074
000310 a2 36 26 3d 02 30 0f 3c f5 87 33 bd d4 d3 0a 3d
       0.040579446 0.008739473 -0.04383083 0.03389342
000320 8d b9 56 bc 86 ff a8 bc 85 ea e4 3c ae 8f 96 bc
       -0.013105762 -0.020629656 0.027943859 -0.018379059
000330 a4 ae 38 bd 34 f1 2c 3b 91 c3 01 3d fd 51 1a 3d
       -0.045088425 0.0026388885 0.031680647 0.037675846
000340 fd d9 03 bc 92 a0 b6 bc d8 9b 8f bc 45 0f 1d bd
       -0.008047578 -0.022293363 -0.017530367 -0.03834464
000350 54 01 84 3c 46 11 dd bc 21 66 af 3c 28 d0 28 bd
       0.016113915 -0.026985776 0.021411004 -0.04121414
000360 84 57 32 3d 1d c1 93 3c 5e 69 7e 3c 13 2d a0 bc
       0.043540493 0.01803642 0.015528051 -0.019552743
000370 34 9b ab bc cc 87 0e 3d 7e 4b 2e bc 71 01 97 bc
       -0.02094803 0.034797475 -0.010638116 -0.018433305
000380 9f cb 91 bc ca b4 4c 3c 90 38 83 bb 37 0c 24 bd
       -0.01779729 0.012494275 -0.0040045455 -0.04005071
000390 5f 48 21 bd 53 50 2f bd 0d 63 09 bc 88 ca 17 bb
       -0.03937566 -0.042801213 -0.008385432 -0.002316149
0003a0 3e ca 31 bd 88 69 ca bc 01 2c 10 bd 79 2a bd bb
       -0.043405764 -0.024708524 -0.035198215 -0.0057728854
0003b0 9b 15 7d 3c 1b 1e 11 3b 91 22 2b 3d 97 84 8d bc
       0.015447046 0.0022143188 0.041781012 -0.017275138
0003c0 83 23 ad bc 63 46 d9 bc 89 83 d8 3b f5 d8 8d 38
       -0.021135097 -0.02652282 0.006607477 6.763815e-05
0003d0 fa 17 27 bd 3d 3c 52 bc ee 42 15 bd c8 7c 27 bc
       -0.04079435 -0.012831745 -0.036440782 -0.010222621
0003e0 03 d5 24 3c 1c 9b e3 bc 5c e3 29 bd 12 3a 1a bb
       0.010060552 -0.027783923 -0.041476592 -0.0023533148
0003f0 be 9e 20 bd c3 79 fc ba 7d d6 f7 3c 3f 11 26 3d
       -0.03921389 -0.0019262362 0.030253643 0.04054379

feature_extractor_part2.0.bias f4 [50]
000000 93 4b 89 3c ad e8 31 3d 94 63 d8 3a 02 b0 24 3d
       0.01675967 0.043434788 0.0016509169 0.040206917
000010 67 59 9b bc bb 18 15 3d 89 06 1e bc 88 2b bb bc
       -0.018963529 0.036400538 -0.009645113 -0.022847906
000020 83 32 2e bd 52 90 2d 3c 71 95 ba bb fb 8d 19 3d
       -0.04252864 0.010593491 -0.0056940843 0.03748892
000030 18 92 bd bc d1 07 0d bd ac 88 f9 3c 63 8a 00 3d
       -0.023140952 -0.034431282 0.030460678 0.031381976
000040 d5 24 1e 3c 3a ff dc bc 35 77 36 3c 67 7d 17 3c
       0.009652336 -0.02697717 0.01113682 0.009246207
000050 73 09 1f 3d ed d5 f0 3c e8 58 69 3c 3e 06 1a 3d
       0.03882737 0.029398883 0.014242388 0.03760361
000060 22 d6 46 3b 9b 34 e5 3b 75 69 b4 3c a8 03 6f bc
       0.0030340035 0.0069947965 0.022022942 -0.014588274
000070 ea e8 8f bc 2c 65 04 3d 96 a1 32 3d 46 6e 24 3b
       -0.017567117 0.032323048 0.04361113 0.0025090142
000080 6c ba c9 ba a4 b1 04 3d ee 99 3b 3d 9a 9f 78 bc
       -0.0015390641 0.032395974 0.045801096 -0.015174771
000090 41 1d ca 3c 32 43 b1 bc 0a f7 b0 bc 95 42 3a bb
       0.024672152 -0.021638487 -0.021602172 -0.0028421034
0000a0 21 0a 8c 3c ad 26 e8 3c 3c f0 a8 3b 62 2b 0f 3d
       0.017094674 0.028338755 0.0051555913 0.034953482
0000b0 da b5 e6 bc fb fc 0c 3d 4a d4 71 bb 4e 7b 0e bc
       -0.028162885 0.03442095 -0.0036900216 -0.00869639
0000c0 16 e8 0a 3d 48 1f 55 3c
       0.03391274 0.013007946

gnn_embd.lin_rel.weight f4 [50, 50]
000000 99 79 01 bd f5 fa 24 3a 62 38 92 3d 6c 14 39 3c
       -0.031610105 0.0006293499 0.071396604 0.011296373
000010 15 91 91 bd 60 bc 01 3d aa 30 de bd 1b 81 42 3d
       -0.0710775 0.03167379 -0.10849126 0.047486406
000020 5d bf b7 bd 37 0d 9b 3d b2 4a 0c 3e da 0d 5f bd
       -0.089720465 0.0757088 0.13700369 -0.05445657
000030 cd 12 95 bc 32 71 cb 3d 84 77 b2 3d 25 2e ed bd
       -0.018197441 0.099337 0.08714202 -0.11581067
000040 21 75 04 3e 95 f1 d9 3d 74 13 bf bd 46 3f a8 3d
       0.12935306 0.10641781 -0.09329882 0.082151935
000050 12 58 54 3d 79 87 96 bd fe 1a 76 bd 2b 22 7f bd
       0.051841803 -0.07350058 -0.060084336 -0.062288444
000060 82 38 28 3d 81 cc bf bd 1a 41 f1 3d aa c1 09 3c
       0.041069515 -0.09365178 0.11779995 0.0084079895
000070 01 94 1a 3d 94 2c 9d bd 72 b1 d7 3d 41 d4 66 bd
       0.037738804 -0.07674518 0.10531892 -0.056354765
000080 09 a8 c9 3d 36 48 71 bd 1d e3 6b 3d 28 ed ce bd
       0.09846503 -0.058906756 0.05758964 -0.10103828
000090 e4 e6 d0 3d cb f5 44 3c 3a ec 02 be ba 5e 00 be
       0.10200289 0.012021492 -0.12785426 -0.12536135
0000a0 15 48 ca bd 85 81 0f bd e8 00 e5 bd 84 c3 d7 3d
       -0.0987703 -0.03503563 -0.111818135 0.105353385
0000b0 a3 dd 44 3d 88 ff 3d bd 20 fa a7 bc c1 4d fb bd
       0.04806293 -0.04638627 -0.020505011 -0.1227069
0000c0 c8 a8 2d 3d dd 24 e6 3d d7 cd 97 3d 22 14 8c bd
       0.04239729 0.112375 0.07412308 -0.068397775
0000d0 68 43 fe bb 7d 18 eb 3d 33 e9 a3 bd 9b 3b a5 3d
       -0.0077595003 0.1147928 -0.080034636 0.080680095
0000e0 48 7a fb 3d 35 8e 0d 3e fd a1 9c 3c eb 8e a0 3d
       0.12279183 0.13823779 0.01912021 0.078397594
0000f0 35 ba 73 bd 77 3f 09 3d 14 96 ad 3d 95 38 9e 3d
       -0.059503753 0.03350779 0.08475891 0.07725636
000100 c7 77 fb bd 1a 08 e2 3c 5b 40 00 3e 8f 88 bb bd
       -0.12278705 0.027591754 0.1252455 -0.09156906
000110 5f 6d c6 bd d8 af 91 bd 0a 1e ce 3d d0 ec 8c bd
       -0.0968883 -0.07113618 0.10064323 -0.06881106
000120 a9 00 b4 3c f9 7b 0b 3e 4c 49 d7 3d ec b3 87 bc
       0.021972971 0.1362151 0.10512027 -0.016565286
000130 46 ab de 3c 54 d6 e7 bd b1 2b d6 3d 70 5f a1 bd
       0.027181279 -0.11320177 0.10457552 -0.078795314
000140 5b 80 ab bd 7d 01 a9 3d 8c 9b f2 3d 20 0a 99 3d
       -0.08374091 0.08252237 0.118460745 0.07472634
000150 ed ba 2a bc 0d 75 75 bd 9d e9 80 3d 6b 80 ed 3d
       -0.010420543 -0.05992608 0.06294558 0.115967594
000160 47 2b cd 3c b6 44 aa bd fb e6 e3 3c 6f e3 d1 3d
       0.02504505 -0.08313887 0.027820101 0.10248458
000170 8d ee 44 3d 07 ea f6 3d 44 cb 3c bc be ce e6 bd
       0.048079062 0.12056356 -0.011523072 -0.11269902
000180 71 fd 89 bd 09 84 07 3d 57 38 bb 3c 16 b0 9e bc
       -0.06737793 0.033084903 0.022854013 -0.019371074
000190 28 cc 67 3c e3 c6 02 be 07 e3 4e bd 37 c9 db 3d
       0.014147796 -0.12771182 -0.05050948 0.10731738
0001a0 a7 00 c6 bd 6d e8 97 3d d7 1c 62 3d f0 64 b3 3c
       -0.09668093 0.074173786 0.055203285 0.021898717
0001b0 8e c9 b1 bc aa 28 8b 3d 61 fb fb 3d 2e 51 a2 bd
       -0.021702554 0.067948654 0.12303806 -0.0792564
0001c0 6a a1 f0 bd 99 db 6f bc dc 96 42 3d 23 86 f3 3d
       -0.11749537 -0.0146397585 0.047507152 0.11890819
0001d0 e8 ba 0a bd 21 d4 d6 3d 6d f1 5d 3d 3e a9 38 bd
       -0.033869654 0.10489679 0.05418532 -0.045083277
0001e0 5e ba a1 3c 9b 58 f3 3b df 72 2d 3d 4a 2f bf 3d
       0.019742187 0.007426334 0.042345878 0.093351915
0001f0 1b 70 23 3d 0b 51 82 3d eb 96 59 3c c5 f5 c8 3b
       0.039901834 0.06363114 0.013280611 0.0061328136
000200 d6 64 f0 3d d2 93 87 3d 8f 96 fd 3c 15 05 4c bd
       0.11737983 0.06619991 0.030955581 -0.049809534
000210 f9 c1 e3 3c d2 6d 87 3d 22 19 5a 3c d2 fb 1c bd
       0.027802454 0.066127434 0.013311656 -0.038326092
000220 0f 70 b3 3d a6 ee a8 bc 84 50 3b 3c 38 93 e9 bd
       0.08761608 -0.020621609 0.011432771 -0.11405033
000230 c8 45 00 be fd e1 7d 3d eb 5b 33 3d 69 5d 07 be
       -0.1252662 0.061983097 0.04378883 -0.13219227
000240 b6 4f e0 3d 95 cc 76 bd bc f9 42 bd 91 67 8c 3d
       0.10952704 -0.0602537 -0.047601447 0.06855691
000250 75 76 04 3e 3f 22 7e 3d f8 ba 39 3c 45 d0 b2 bd
       0.12935813 0.06204438 0.011336081 -0.087311305
000260 a1 c1 a9 bd ac 92 0c 3e 20 93 67 3d 90 74 e0 3c
       -0.08288885 0.13727826 0.056536794 0.027399331
000270 ab 55 c2 3d 52 44 ba 3d cd a7 6d bd 99 8c 01 bd
       0.09488996 0.09095062 -0.058021355 -0.031628225
000280 77 48 b9 3d bd a6 b3 3c 34 0b 70 bc 1d ff d6 3d
       0.09047025 0.021930093 -0.0146511085 0.10497878
000290 01 ee 71 3d cf 30 fc 3d 62 1a 40 3d cc 01 dd 3d
       0.05906487 0.12313997 0.04690016 0.10791358
0002a0 68 95 ad 3b 9e ae a9 3c 24 67 fe bc 91 b0 06 3e
       0.0052973516 0.020713147 -0.03105504 0.13153292
0002b0 10 9a ba 3b 7b 1b 73 bb df ca ef bc e9 b2 8b bd
       0.005694635 -0.0037095237 -0.029271541 -0.06821234
0002c0 61 f0 ed bd 25 88 01 bc 45 2e bb bc 86 35 e8 3d
       -0.11618114 -0.007905995 -0.022849211 0.11338334
0002d0 de 7f ce 3c b7 c1 d6 bd 22 cd c1 bc c8 7e 3f 3b
       0.025207456 -0.10486167 -0.023657385 0.0029219855
0002e0 77 a9 c0 bc 07 7b 0b be a8 58 f5 3b 7f e6 08 be
       -0.023518307 -0.1362115 0.0074873753 -0.13369177
0002f0 58 2a c3 3d 50 c1 1a bd 64 d1 fd 3d d3 a4 6f 3d
       0.09529561 -0.037782013 0.12393454 0.058506798
000300 10 12 b6 3d 91 88 02 3e 84 62 3a bd 8b 32 be 3d
       0.08890164 0.12747408 -0.045504108 0.09286984
000310 9b d4 07 bd 11 9f 21 3d 05 07 eb bc 85 ca ea 3d
       -0.03316174 0.03945834 -0.02868987 0.11464409
000320 c8 84 09 3e f2 3c 01 bd ae c4 a4 3d 45 36 11 bc
       0.13429558 -0.031552263 0.08045326 -0.0088630365
000330 6c c5 5e 3b f8 21 18 3d fa f8 7d 3c 6b 7a 5f bc
       0.0033992184 0.03714177 0.015501255 -0.013640027
000340 7f 68 97 bd 97 e0 f0 3d 7a e4 cc 3d 9a 39 8b bd
       -0.07392978 0.11761587 0.10004516 -0.06798096
000350 9f 9a 0a 3e 67 1c 95 3d 5e 13 e5 3d 74 f2 0f 3e
       0.13535546 0.07280808 0.111853346 0.14057332
000360 7f 24 80 bb 0c 1e 2f 3d b5 8e af bb 4b c7 ad 3d
       -0.0039106007 0.042753264 -0.005357588 0.08485278
000370 de c0 c8 bd 95 77 e3 3d 98 c2 b4 3d 26 86 b3 bd
       -0.098024115 0.11106793 0.08826178 -0.08765821
000380 4f 4e ac bd 01 eb 2b 3d 17 50 d9 bd 15 88 f2 bd
       -0.08413374 0.041972164 -0.10610979 -0.11842362
000390 ef 74 9f 3d 61 0c 1b bd 78 49 c0 bd 26 35 0b be
       0.07785975 -0.037853602 -0.09389013 -0.13594493
0003a0 57 aa 51 3d ab d4 16 3c b3 04 e9 3d e2 ee 8a bd
       0.05118784 0.009205977 0.113778494 -0.067838445
0003b0 22 c8 5e 3d c8 70 df 3d f9 28 a1 bc 51 41 f8 bd
       0.05439008 0.10910183 -0.019672858 -0.12121833
0003c0 36 7a d0 bd e9 68 d8 3d 16 e8 04 be 5d fd f3 3d
       -0.1017956 0.10566885 -0.12979159 0.119135596
0003d0 d0 43 59 bd 0d 6d bc bc 94 37 92 bd dc 46 42 bd
       -0.053043187 -0.023001218 -0.07139507 -0.047430858
0003e0 9a 28 05 be 2a 74 4d 3d 65 f2 c3 3c 64 35 b9 3d
       -0.1300377 0.05015961 0.023919294 0.090433866
0003f0 e9 1c 85 bd 75 d9 0c 3d ae e9 ef bd 22 31 58 3c
       -0.06499655 0.03438707 -0.11714493 0.013195308

gnn_embd.lin_root.weight f4 [50, 50]
000000 5d 01 a8 3d c4 70 94 bd 58 b8 aa bd 39 5a 6e bc
       0.08203385 -0.07248071 -0.08335942 -0.014547878
000010 b3 61 00 be f2 63 82 bc b1 e0 d4 bd 2d 75 04 be
       -0.1253727 -0.015916798 -0.10394419 -0.12935324
000020 91 46 25 3a da b9 8d bd db 86 30 bc 34 e7 b9 bd
       0.00063047657 -0.06920214 -0.01077434 -0.090773016
000030 f7 1a 82 3c 0e b3 6a 3d 07 c0 a1 bd be c1 07 bd
       0.015881998 0.057299666 -0.078979544 -0.03314375
000040 b3 61 07 be 7f 55 04 be f8 3c 84 bd 53 99 70 3d
       -0.13220863 -0.12923239 -0.06456941 0.05873997
000050 ee d6 8e 3d a6 80 b2 bd 26 43 88 3d a9 1c 8e bd
       0.06974588 -0.08715944 0.066534325 -0.0693906
000060 02 fc 05 3e a9 fb 08 bd b3 35 f0 bc 30 6c c9 bd
       0.13084415 -0.033443127 -0.02932248 -0.09835088
000070 e2 d8 ea 3d d4 48 c2 3d 97 d6 89 bc 0f d7 9c 3d
       0.11467148 0.09486547 -0.016825957 0.07658207
000080 d5 3b b6 3d c6 13 83 3d 21 f8 92 bd 99 a4 3f 3d
       0.08898131 0.06400256 -0.07176233 0.046787832
000090 f7 cc 75 3d 25 5f 17 3d 68 ed 2e bc 6e a2 d5 bd
       0.060009923 0.03695597 -0.010676719 -0.10431372
0000a0 86 94 0d 3e 88 7a a6 bc 35 66 a8 bd a4 e4 9f bc
       0.13826188 -0.0203221 -0.082226194 -0.019518204
0000b0 ad 10 a6 3d 41 18 81 bd 3e ab 09 bc 3c 00 d8 bb
       0.081086494 -0.06303454 -0.008402644 -0.006591825
0000c0 4d 21 a4 bc 4d 7d b8 3d c4 0b 24 bd 6b 72 9f 3d
       -0.02003541 0.09008274 -0.040050283 0.07785495
0000d0 e5 30 db 3d 8f 7b fa 3d 9d 2e 0f 3e e8 ea ba 3c
       0.10702685 0.12230598 0.13982625 0.02281709
0000e0 b2 d6 af 3d 27 36 19 bd 1b 58 d8 bd 2d 97 e7 bd
       0.08585872 -0.03740516 -0.1056368 -0.11308131
0000f0 68 3d 8d bd a0 ae 8e bc e5 5b a6 3d 37 94 5b 3d
       -0.06896478 -0.017417252 0.08122996 0.053608146
000100 b5 c1 e9 3d 0a 48 d3 bd 4e 1e 43 bd c5 ad e4 bd
       0.114139 -0.10316475 -0.047636323 -0.111659564
000110 90 26 40 3d a1 14 8d 3c b5 0d 87 3d e4 e4 ec 3d
       0.046911776 0.01722175 0.06594411 0.11567095
000120 b5 68 b3 3c ac 6a d5 bd 43 c4 bc 3d b3 47 09 bd
       0.021900514 -0.10420737 0.092171215 -0.033515643
000130 fc 8a 84 bd 50 12 03 3e 60 b2 a3 3d e6 83 3c 3d
       -0.06471822 0.12799954 0.07993007 0.046024226
000140 d3 e7 8e 3b 2e 58 f7 3c be 7c 49 bb 35 05 33 bd
       0.0043611317 0.030193415 -0.0030744518 -0.043706138
000150 ec 90 a8 3d 4f 60 45 bd 32 92 23 bb 14 b3 e6 3d
       0.08230767 -0.04818755 -0.0024958965 0.11264625
000160 04 19 fa bc 84 c9 cf bc ac 96 72 bd 4d 53 e6 3c
       -0.030529507 -0.025364645 -0.059225723 0.028115893
000170 0b 03 c3 bd cc 52 d6 3c e9 6e ba bd 46 bd 95 bd
       -0.09522065 0.026162528 -0.09103186 -0.07311492
000180 1b e0 a5 3d 6e 14 57 bd 69 b2 bc 3d 19 48 af bd
       0.08099385 -0.052509718 0.092137165 -0.085586734
000190 b0 3c 77 bd 82 3d 05 be d4 99 3d bd 17 c3 c8 3d
       -0.06036061 -0.13011745 -0.04628928 0.098028354
0001a0 fb 3d ce bd 2f 05 11 bd 1a df 6a 3d 23 1a af bd
       -0.100704156 -0.035405334 0.057341672 -0.08549907
0001b0 48 5a 8d bc 55 b8 06 3e 9c 4d a0 3b 8e 0c 64 bd
       -0.017254964 0.13156255 0.0048920643 -0.055676036
0001c0 56 2d 33 3d ba 1b 8a 3d e4 e3 df 3d 95 f5 c6 3d
       0.043744408 0.0674357 0.109321386 0.0971481
0001d0 0e 7c 9e 3d b6 e4 53 3c 05 14 03 be 63 42 65 3d
       0.07738505 0.012932947 -0.12800606 0.055971514
0001e0 a1 aa 0a be 8f 14 6d 3c 1e 7b bd bd d6 3c 49 bb
       -0.13541652 0.014470234 -0.09251998 -0.0030706427
0001f0 a4 e6 c4 bd 2f 39 9b bd 27 f5 28 3d e7 71 a6 bd
       -0.09614304 -0.07579266 0.04124942 -0.08127194
000200 1d 81 d9 bd 58 28 9d 3c 2a b6 ce 3d 89 19 68 bd
       -0.106203295 0.019184276 0.10093339 -0.056664977
000210 b0 a6 fb 3d 40 c4 8a 3a e5 84 cb bd 6c 70 8a bd
       0.122876525 0.0010587052 -0.09937457 -0.06759724
000220 92 1e 89 bd 7e 55 70 3d 82 11 b8 3d 28 00 03 be
       -0.06695284 0.05867528 0.08987714 -0.12793028
000230 e8 21 e7 3d 60 36 82 bd 35 db e9 3b 9e 1a bb 3d
       0.11285764 -0.063580275 0.007136727 0.09135936
000240 92 b9 04 be 7e 16 aa 3d 4b 18 ff bd 64 d9 b0 3d
       -0.12961414 0.08305071 -0.124558054 0.08635214
000250 00 b0 e2 bc fd 47 66 3d 2f de 8e 3d f8 cd b9 3d
       -0.027671814 0.056220997 0.06975972 0.090724885
000260 54 56 83 3d 25 d9 5d 3d 47 f5 73 3c 0c 81 d3 bd
       0.0641295 0.054162163 0.014890022 -0.10327348
000270 11 53 a7 3d 1c 0b d0 3d 8a 18 a3 bc 13 51 99 3c
       0.081701405 0.10158369 -0.019909162 0.018715417
000280 d5 26 0a 3e 22 a9 d9 3d 2b a4 73 bd ed 36 0a 3e
       0.13491376 0.10627963 -0.059482735 0.13497515
000290 13 43 ed bd 35 6f be bd 28 e5 68 3d af b7 18 bd
       -0.11585059 -0.09298555 0.056859165 -0.03728455
0002a0 ee dd 89 bd 2d 7f 38 3c d9 7e 2d bd bc 79 60 bb
       -0.06731783 0.01126079 -0.0423573 -0.0034252247
0002b0 27 48 05 ba 17 da 13 bb a3 d1 66 3d 3e 53 df bd
       -0.0005084299 -0.0022560412 0.05635227 -0.10904549
0002c0 70 93 20 bd c4 f1 ac bd b4 60 db bd 2b 3f dc 3d
       -0.039203107 -0.08444551 -0.10711804 0.10754236
0002d0 64 2a d5 bd 87 93 ec bd 31 2c ba bd 48 67 9b 3d
       -0.10408476 -0.11551576 -0.0909046 0.07588059
0002e0 1f 95 3f 3d 97 5f f5 3d 22 14 87 3d a2 1a 05 3e
       0.046773072 0.11981123 0.06595637 0.12998441
0002f0 3d 07 4e bc 8b f1 bd 3d dc c3 4b 3d 52 81 ac bc
       -0.012574968 0.09274586 0.049747333 -0.021057758
000300 76 52 f5 bd bc 9e b3 3d 87 af cc 3c 32 11 32 3c
       -0.11978619 0.087705106 0.024986042 0.0108683575
000310 d3 e3 a1 bd aa 16 2c ba 1e 37 d3 3b 97 89 9d 3d
       -0.07904782 -0.00065646565 0.0064457795 0.07692259
000320 f9 b0 31 3d 7c b9 08 3d 39 00 ff 3d 28 12 fa bd
       0.043381665 0.033380017 0.12451214 -0.12210494
000330 2a 5b 9c 3c ad c6 39 bc ff 92 df bd 66 4a cc bd
       0.01908644 -0.011338872 -0.10916709 -0.09975128
000340 7b 2b be bd 11 28 e8 3d 5c 56 b8 bd 42 29 fb 3d
       -0.09285637 0.11335767 -0.09000847 0.12263729
000350 84 51 03 be ef dc 0b 3e f0 74 e4 3d e9 81 b2 bd
       -0.12824064 0.13658498 0.111551166 -0.08716185
000360 dc 7b 24 3d f5 35 41 3b 2e f1 81 3d 0f 0f db 3c
       0.040157184 0.0029481624 0.063448295 0.026740579
000370 98 90 fe 3d cf 45 04 3e c6 dc 11 3c b5 35 95 bd
       0.12429923 0.12917255 0.008902734 -0.072856344
000380 f9 86 47 3d c3 60 d0 bd a5 c3 ff bd b7 a5 58 bd
       0.048712704 -0.10174706 -0.12488488 -0.052892413
000390 50 ce a6 3d 4b 76 a1 3d d8 da ce 3d 29 ed 02 be
       0.0814482 0.07883891 0.10100335 -0.12785782
0003a0 7b 1f 07 3d fa 5c f0 3c 8c 44 d1 3d da a6 04 3d
       0.032989006 0.02934121 0.102181524 0.032385685
0003b0 e2 10 36 bd ff a1 61 3c ad bb dc bc ee be c3 bc
       -0.044449694 0.013771533 -0.02694496 -0.023894753
0003c0 f7 25 b4 bd 8d 72 07 3e 0a a0 97 3c 78 7f 0c be
       -0.08796304 0.13227291 0.01850893 -0.137205
0003d0 b4 bb 0f 3d dc 6b 64 3d ec d6 84 bd 59 97 6e bd
       0.035091117 0.055766925 -0.064863056 -0.058249805
0003e0 c5 58 a1 bd 82 a4 2b bd af e3 05 3e 3c 50 a9 3d
       -0.078782596 -0.041904934 0.13075136 0.082672566
0003f0 0c c6 92 bc 5d bf 0d 3e 43 10 0b 3d 82 66 0f 3d
       -0.017916702 0.1384253 0.033951055 0.03500987

gnn_embd.lin_root.bias f4 [50]
000000 ff 5e b3 bd bd 97 ea 3d 75 6d b0 3c 2b 6d ee bd
       -0.087583534 0.11454723 0.021536568 -0.11641916
000010 81 13 81 bd e6 88 83 3d f6 69 c6 3c 52 d0 e2 bd
       -0.06302548 0.06422596 0.024220448 -0.1107489
000020 c2 d1 e1 3d 2b 68 b4 3c cc dc d1 bd d5 49 c1 bc
       0.11026336 0.022022327 -0.10247192 -0.023594776
000030 a8 74 b3 bc cf 69 80 bc 17 6a d8 bd 17 8f c5 3c
       -0.021906212 -0.015675453 -0.1056711 0.024116082
000040 86 41 c3 3c 32 a0 07 be 00 72 87 3d 4a 9c c5 bd
       0.023834955 -0.13244703 0.06613541 -0.096489504
000050 b2 f2 9e 3a ee 2a 58 bd 87 3f ca 3d 20 9d 03 be
       0.0012126772 -0.052775316 0.09875398 -0.12852907
000060 56 9d 96 bd 35 74 5d 3c 77 b3 f8 3d e2 8c 01 3e
       -0.07354228 0.013516475 0.12143605 0.12651399
000070 75 3c 33 3d b9 9c d9 3d ee c7 11 3d 48 eb 9b 3d
       0.04375883 0.106255956 0.03559106 0.07613236
000080 a2 8a 01 3c 45 d6 fa bc 07 01 e3 3d 55 5e 30 bc
       0.007906588 -0.03061975 0.1108418 -0.010764678
000090 98 be 2d 3d b8 c1 e2 bc fb 0c df 3d 8a da a1 3d
       0.042418092 -0.027680263 0.10891148 0.07903011
0000a0 05 7a 03 be 19 ae c4 bd 77 c7 a0 bd f4 2f 10 be
       -0.12839516 -0.09603519 -0.07850545 -0.14080793
0000b0 55 01 41 bd 52 95 87 3d c7 b9 2d bc d9 13 b9 3d
       -0.04712041 0.066202775 -0.010603375 0.09036989
0000c0 3a e5 0e bd 29 63 e7 3d
       -0.034886576 0.1129821

bn1.weight f4 [50]
000000 00 00 80 3f 00 00 80 3f 00 00 80 3f 00 00 80 3f
       1.0 1.0 1.0 1.0
000010 00 00 80 3f 00 00 80 3f 00 00 80 3f 00 00 80 3f
       1.0 1.0 1.0 1.0
000020 00 00 80 3f 00 00 80 3f 00 00 80 3f 00 00 80 3f
       1.0 1.0 1.0 1.0
000030 00 00 80 3f 00 00 80 3f 00 00 80 3f 00 00 80 3f
       1.0 1.0 1.0 1.0
000040 00 00 80 3f 00 00 80 3f 00 00 80 3f 00 00 80 3f
       1.0 1.0 1.0 1.0
000050 00 00 80 3f 00 00 80 3f 00 00 80 3f 00 00 80 3f
       1.0 1.0 1.0 1.0
000060 00 00 80 3f 00 00 80 3f 00 00 80 3f 00 00 80 3f
       1.0 1.0 1.0 1.0
000070 00 00 80 3f 00 00 80 3f 00 00 80 3f 00 00 80 3f
       1.0 1.0 1.0 1.0
000080 00 00 80 3f 00 00 80 3f 00 00 80 3f 00 00 80 3f
       1.0 1.0 1.0 1.0
000090 00 00 80 3f 00 00 80 3f 00 00 80 3f 00 00 80 3f
       1.0 1.0 1.0 1.0
0000a0 00 00 80 3f 00 00 80 3f 00 00 80 3f 00 00 80 3f
       1.0 1.0 1.0 1.0
0000b0 00 00 80 3f 00 00 80 3f 00 00 80 3f 00 00 80 3f
       1.0 1.0 1.0 1.0
0000c0 00 00 80 3f 00 00 80 3f
       1.0 1.0

bn1.bias f4 [50]
000000 00 00 00 00 00 00 00 00 00 00 00 00 00 00 00 00
       0.0 0.0 0.0 0.0
000010 00 00 00 00 00 00 00 00 00 00 00 00 00 00 00 00
       0.0 0.0 0.0 0.0
000020 00 00 00 00 00 00 00 00 00 00 00 00 00 00 00 00
       0.0 0.0 0.0 0.0
000030 00 00 00 00 00 00 00 00 00 00 00 00 00 00 00 00
       0.0 0.0 0.0 0.0
000040 00 00 00 00 00 00 00 00 00 00 00 00 00 00 00 00
       0.0 0.0 0.0 0.0
000050 00 00 00 00 00 00 00 00 00 00 00 00 00 00 00 00
       0.0 0.0 0.0 0.0
000060 00 00 00 00 00 00 00 00 00 00 00 00 00 00 00 00
       0.0 0.0 0.0 0.0
000070 00 00 00 00 00 00 00 00 00 00 00 00 00 00 00 00
       0.0 0.0 0.0 0.0
000080 00 00 00 00 00 00 00 00 00 00 00 00 00 00 00 00
       0.0 0.0 0.0 0.0
000090 00 00 00 00 00 00 00 00 00 00 00 00 00 00 00 00
       0.0 0.0 0.0 0.0
0000a0 00 00 00 00 00 00 00 00 00 00 00 00 00 00 00 00
       0.0 0.0 0.0 0.0
0000b0 00 00 00 00 00 00 00 00 00 00 00 00 00 00 00 00
       0.0 0.0 0.0 0.0
0000c0 00 00 00 00 00 00 00 00
       0.0 0.0

bn1.running_mean f4 [50]
000000 00 00 00 00 00 00 00 00 00 00 00 00 00 00 00 00
       0.0 0.0 0.0 0.0
000010 00 00 00 00 00 00 00 00 00 00 00 00 00 00 00 00
       0.0 0.0 0.0 0.0
000020 00 00 00 00 00 00 00 00 00 00 00 00 00 00 00 00
       0.0 0.0 0.0 0.0
000030 00 00 00 00 00 00 00 00 00 00 00 00 00 00 00 00
       0.0 0.0 0.0 0.0
000040 00 00 00 00 00 00 00 00 00 00 00 00 00 00 00 00
       0.0 0.0 0.0 0.0
000050 00 00 00 00 00 00 00 00 00 00 00 00 00 00 00 00
       0.0 0.0 0.0 0.0
000060 00 00 00 00 00 00 00 00 00 00 00 00 00 00 00 00
       0.0 0.0 0.0 0.0
000070 00 00 00 00 00 00 00 00 00 00 00 00 00 00 00 00
       0.0 0.0 0.0 0.0
000080 00 00 00 00 00 00 00 00 00 00 00 00 00 00 00 00
       0.0 0.0 0.0 0.0
000090 00 00 00 00 00 00 00 00 00 00 00 00 00 00 00 00
       0.0 0.0 0.0 0.0
0000a0 00 00 00 00 00 00 00 00 00 00 00 00 00 00 00 00
       0.0 0.0 0.0 0.0
0000b0 00 00 00 00 00 00 00 00 00 00 00 00 00 00 00 00
       0.0 0.0 0.0 0.0
0000c0 00 00 00 00 00 00 00 00
       0.0 0.0

bn1.running_var f4 [50]
000000 00 00 80 3f 00 00 80 3f 00 00 80 3f 00 00 80 3f
       1.0 1.0 1.0 1.0
000010 00 00 80 3f 00 00 80 3f 00 00 80 3f 00 00 80 3f
       1.0 1.0 1.0 1.0
000020 00 00 80 3f 00 00 80 3f 00 00 80 3f 00 00 80 3f
       1.0 1.0 1.0 1.0
000030 00 00 80 3f 00 00 80 3f 00 00 80 3f 00 00 80 3f
       1.0 1.0 1.0 1.0
000040 00 00 80 3f 00 00 80 3f 00 00 80 3f 00 00 80 3f
       1.0 1.0 1.0 1.0
000050 00 00 80 3f 00 00 80 3f 00 00 80 3f 00 00 80 3f
       1.0 1.0 1.0 1.0
000060 00 00 80 3f 00 00 80 3f 00 00 80 3f 00 00 80 3f
       1.0 1.0 1.0 1.0
000070 00 00 80 3f 00 00 80 3f 00 00 80 3f 00 00 80 3f
       1.0 1.0 1.0 1.0
000080 00 00 80 3f 00 00 80 3f 00 00 80 3f 00 00 80 3f
       1.0 1.0 1.0 1.0
000090 00 00 80 3f 00 00 80 3f 00 00 80 3f 00 00 80 3f
       1.0 1.0 1.0 1.0
0000a0 00 00 80 3f 00 00 80 3f 00 00 80 3f 00 00 80 3f
       1.0 1.0 1.0 1.0
0000b0 00 00 80 3f 00 00 80 3f 00 00 80 3f 00 00 80 3f
       1.0 1.0 1.0 1.0
0000c0 00 00 80 3f 00 00 80 3f
       1.0 1.0

gnn_pool.lin_rel.weight f4 [1, 50]
000000 66 1d 4e 3d f1 34 72 bd 62 5c 18 3c 3b 48 ee bd
       0.050321005 -0.05913252 0.0092993695 -0.116348706
000010 fd e8 c2 bd dd 1c b7 bd 59 9e e9 bd ad 0f ac 3d
       -0.09517095 -0.08941052 -0.114071555 0.084014274
000020 63 f1 8b 3d 93 2e 55 bc 5a 60 5b bc 05 30 e2 bd
       0.0683315 -0.013011592 -0.013389671 -0.11044315
000030 5e 5b 93 3d 6e 57 c1 bd de f7 8c bd 8e c3 98 3d
       0.07195161 -0.09440504 -0.068832144 0.07459174
000040 d7 6d a3 3b fe da ce bd 8d 7f 8c 3d fb c6 92 bd
       0.004987459 -0.10100363 0.06860266 -0.07166859
000050 a1 0c 4c bb d9 8c 8a 3d 65 3c 05 3e a2 75 03 be
       -0.0031135457 0.06765146 0.1301132 -0.12837842
000060 ca 54 99 bd 5d 89 f8 bd 5b f3 9a 3c 22 2a 0b 3e
       -0.07486875 -0.12135575 0.018914869 0.13590291
000070 8c a6 c4 bd 48 09 79 3d f3 76 92 bc ae b7 b7 bd
       -0.09602079 0.060799867 -0.017878985 -0.08970581
000080 1b 53 b2 bd 9f b3 f3 bd 20 a0 97 bd f4 2c cc 3c
       -0.08707257 -0.118994944 -0.07403588 0.02492378
000090 7a c6 90 3d 28 f9 3b bd 00 a5 bc bc c3 d5 09 be
       0.070691064 -0.04589191 -0.023027897 -0.1346045
0000a0 7a 2c aa 3c 3a ba bd 3c 17 9b a6 bd 9b 58 0a be
       0.020773161 0.023160089 -0.0813505 -0.13510363
0000b0 d4 2a 7d 3c 2b 10 68 3d 14 f3 80 3d 8c 96 c0 bb
       0.015452106 0.056656044 0.062963635 -0.0058773216
0000c0 17 5d 48 3d e7 c8 cb 3c
       0.048916902 0.024876071

gnn_pool.lin_root.weight f4 [1, 50]
000000 f3 fa 55 bd 2c 25 9c bd d1 8c 4c bd 46 84 fd 3c
       -0.052241277 -0.076242775 -0.04993898 0.030946862
000010 e1 cd ce bc 0c f5 28 bc f4 61 fb 3c c2 a6 01 bd
       -0.025244655 -0.01031233 0.030686356 -0.031653173
000020 1d 31 27 bc 84 ba 9b bc 45 96 36 3d b3 a8 22 bb
       -0.010204581 -0.019009836 0.044576902 -0.002481979
000030 08 be 75 3d f2 83 02 be b5 bb 78 bd f4 d5 2e bd
       0.05999568 -0.12745646 -0.060725886 -0.04268451
000040 88 1f 84 3d 23 29 22 3d f7 aa a6 3c db c8 97 3d
       0.064513266 0.039590012 0.020345194 0.07411357
000050 0d bf c9 3d 44 92 a2 bd 60 c3 b9 bd 8c 6e f0 bd
       0.09850893 -0.07938054 -0.09070468 -0.11739835
000060 bb 53 57 bd f3 b0 81 bd 4e c2 a8 bd 55 4b fc 3d
       -0.052570086 -0.063325785 -0.08240186 0.12319056
000070 b6 81 60 ba d5 29 26 bc 9c 1c 2e bd 23 81 bd bd
       -0.00085642503 -0.0101418095 -0.042507753 -0.092531465
000080 40 39 6b bd c9 a6 0e 3e c0 52 63 3d 3d 85 9c 3d
       -0.057427645 0.13930811 0.05549884 0.07642601
000090 b5 72 e5 bd 1c 5d a0 3d be d5 e1 bd 14 3c 08 bd
       -0.11203519 0.07830259 -0.11027096 -0.03326042
0000a0 c2 81 65 3d 0c b5 4b bd f5 b8 8c bd ff 57 96 3c
       0.05603195 -0.049733207 -0.06871215 0.018352507
0000b0 7f 85 1b bd 5d ad af 3b ea 42 f6 3d fe 3e 50 bd
       -0.03796911 0.0053612427 0.120244816 -0.050841324
0000c0 60 de 36 bd e5 d7 c5 3d
       -0.044645667 0.09660319
